ml/trained_model/checkpoint-315/adapter_model.safetensors (safetensors, 591352 bytes, 12 tensors)

base_model.model.transformer.h.0.attn.c_attn.lora_A.weight f4 [8, 768]
0	0xbcc66ef3	-0.024222827
1	0x3cff00d5	0.031128326
2	0xbd267ce4	-0.04064645
3	0x3cd48efe	0.02594709
4	0x3b01e919	0.0019822775
5	0x3b10608d	0.0022030205
6	0x3c42e000	0.011894226
7	0xb99b8060	-0.0002965955
8	0x3b21698a	0.0024629557
9	0x3baf02fc	0.005340932
10	0xbd0557f1	-0.03255457
11	0x3c022ed5	0.007945736
12	0x3ae5cb83	0.0017531965
13	0x3ccb5f7b	0.024825802
14	0x3cad8636	0.02118216
15	0xbc1c4331	-0.009537504
16	0x3cd83b1f	0.026395379
17	0xbcbef83c	-0.023311727
18	0xbcd2d951	-0.02573839
19	0xbcae2281	-0.021256687
20	0xbc867d1f	-0.016417084
21	0xbd2e2ccc	-0.04252319
22	0x3cc7750b	0.024347803
23	0xbb2a2061	-0.002595924
24	0x3aeb99b7	0.0017974888
25	0x3cb1a6ca	0.021685977
26	0x3cb8cb96	0.022558015
27	0xbc81966c	-0.015818797
28	0xbbaec7e7	-0.005333889
29	0x3b429b01	0.002969444
30	0xbb095c72	-0.0020959643
31	0xbaa4ea82	-0.0012582096
32	0xbba8280f	-0.0051317285
33	0xbcb6a53a	-0.022295583
34	0xbbb82cee	-0.0056205904
35	0xbcb42a5b	-0.021992853
36	0x3b9def42	0.0048197815
37	0xbd09f3de	-0.033679835
38	0x3b97e942	0.004635961
39	0x3b3483b0	0.0027544312
40	0x3bd79fbc	0.006580321
41	0x3bc32daf	0.0059563736
42	0xbcd5a597	-0.026079936
43	0x3bb0cdb5	0.005395616
44	0xbc19107f	-0.009342312
45	0x3ba95807	0.0051679644
46	0x3cdf75d5	0.027277866
47	0xbca4b011	-0.020103486
48	0xbbc113d6	-0.005892257
49	0x3cedae44	0.02901376
50	0xbd2447af	-0.040107425
51	0xbd318d5d	-0.043347705
52	0xbcee4b3d	-0.02908861
53	0x3d2a49bf	0.041574236
54	0xbcadcd29	-0.021215992
55	0xbcdc498c	-0.026890539
56	0xbbf24cab	-0.0073943934
57	0xbc1f83de	-0.009736029
58	0xbca5ae73	-0.020224785
59	0x3d3492ef	0.04408544
60	0xbce92c21	-0.028463425
61	0xbd15c48b	-0.03656439
62	0xbbdb36cb	-0.0066898814
63	0xbd04e23a	-0.03244231
64	0x3c2b8a7e	0.010470031
65	0x3d0fdbd2	0.035121746
66	0x3ceed447	0.029153956
67	0x3d03218b	0.03201441
68	0xbcc54baf	-0.02408394
69	0xbcdc917b	-0.02692484
70	0x3aca4915	0.0015433157
71	0x3cb0b4fa	0.021570671
72	0xbc98ab58	-0.01863639
73	0xba2e40c3	-0.00066472235
74	0xbc144862	-0.0090504605
75	0x3c33302d	0.010936779
76	0x3be765ba	0.0070616873
77	0x3b927b18	0.0044702403
78	0xbc4827aa	-0.012216488
79	0x3c7a9a61	0.015295596
80	0x3c9abe0b	0.018889448
81	0x3c4e7949	0.012602159
82	0x3cdc7af3	0.026914096
83	0x3ca6ecf1	0.020376654
84	0xbc203e5d	-0.009780494
85	0x3cec0b8b	0.028814098
86	0x3c344b04	0.011004213
87	0xbd0ffe00	-0.035154343
88	0xbd3258cd	-0.04354172
89	0xbcc0611a	-0.023483802
90	0xbceffbfb	-0.029294958
91	0x3d2095c4	0.039205328
92	0x3b822640	0.003971845
93	0x3c89b955	0.016812006
94	0x3d23696d	0.039895464
95	0x3c14ba5b	0.009077634
96	0xbc97ad55	-0.018515268
97	0xbc6b0061	-0.014343352
98	0x3bf6e688	0.0075348057
99	0xbc01ac77	-0.007914654
100	0x3c6c4ff4	0.014423359
101	0xbcb1bd0d	-0.021696592
102	0x3c207086	0.009792453
103	0x3c982866	0.018573951
104	0x3caf30d2	0.021385584
105	0xbcb2eae8	-0.021840528
106	0x3c27a1af	0.0102314195
107	0xbca713a1	-0.020395102
108	0x3d1aef97	0.037826147
109	0x3d0d82ef	0.034548696
110	0xbcb5f38e	-0.022210862
111	0x3caf0c7e	0.021368261
112	0x3d067e64	0.03283538
113	0xbd20b2e5	-0.039233107
114	0xbc7b26b4	-0.015329052
115	0x3c883d18	0.016630694
116	0xbc0e6cdf	-0.008692949
117	0x3d0041c6	0.031312726
118	0xbc851bca	-0.016248602
119	0xbc1a6271	-0.009422884
120	0x3d115453	0.03548081
121	0x3ceab694	0.028651513
122	0x3cd2069b	0.025637915
123	0xbb61c843	-0.003445164
124	0xbbee28d3	-0.00726805
125	0xb987b8b2	-0.00025886815
126	0x3cbb6c3c	0.022878759
127	0x3c53aaae	0.012919111
128	0x3cd4ea4c	0.025990628
129	0x3b97f939	0.004637864
130	0xbd1884cb	-0.037236016
131	0xbc9b8527	-0.01898439
132	0xbca8fce2	-0.020628396
133	0x3d2b2f31	0.041793052
134	0xbcfd21a2	-0.030899826
135	0x3d1c77c5	0.03820016
136	0xbd17fd2e	-0.037106685
137	0xbc22b6ea	-0.009931305
138	0x3d310f44	0.04322745
139	0x3cbafa00	0.022824287
140	0x3bfd9713	0.0077389567
141	0x3d1c38c1	0.038140062
142	0xbb20b134	-0.0024519684
143	0xbc86cb05	-0.01645423
144	0xbd10ecfa	-0.03538225
145	0xbccfaaf4	-0.025350071
146	0xbc89f07a	-0.016838301
147	0x3c3b3ffb	0.011428828
148	0xbc5e4fe7	-0.013568855
149	0xbc9b8f8a	-0.018989343
150	0xbd36f171	-0.04466385
151	0x3b1a5724	0.0023550475
152	0x3bed9d1b	0.0072513944
153	0xbd317a2d	-0.043329407
154	0x3bf2effa	0.0074138613
155	0xbd24350e	-0.04008966
156	0xbba3678e	-0.00498671
157	0xbc88f035	-0.016716102
158	0xbcb45932	-0.022015188
159	0xbc80ded4	-0.015731253
160	0xbb788d46	-0.0037926002
161	0x3d2f3517	0.04277524
162	0xbd00a9e2	-0.031412013
163	0x3d33bfbb	0.04388402
164	0x3d07280b	0.032997172
165	0xbcdb97f6	-0.026805859
166	0xbcdbdd2c	-0.026838861
167	0x3c00093f	0.007814704
168	0x3d2624b1	0.040562335
169	0x3d10fcf1	0.035397474
170	0xbd12f319	-0.035876367
171	0x3d1eb34f	0.03874522
172	0xbc1315e3	-0.008977386
173	0xba3c35f4	-0.00071796705
174	0xbc024387	-0.00795067
175	0x3bbbac24	0.005727308
176	0xbbdb29d0	-0.006688334
177	0x3ca0eaf9	0.019643294
178	0x3bd009b3	0.0063488125
179	0xbb82bfe5	-0.0039901608
180	0x3bb35a32	0.0054733986
181	0xbc3e7fae	-0.011627121
182	0xbb262c36	-0.0025355942
183	0xbcf4590c	-0.029827617
184	0x3ad69d92	0.0016373864
185	0xbcf84a34	-0.03030882
186	0x3c9b8d0f	0.01898816
187	0xbd149fc4	-0.036285177
188	0xbb80ba47	-0.003928456
189	0x3c8de9f1	0.017323466
190	0x3d099dd8	0.033597797
191	0x3c853fd6	0.01626579
192	0x3d35ab01	0.044352535
193	0xbd11978f	-0.03554493
194	0x3c9ec794	0.019382276
195	0x3cd6c781	0.026218178
196	0xbcbae9ab	-0.0228165
197	0xbcb0feec	-0.021605931
198	0xbc223327	-0.009899891
199	0xbc9fbe9d	-0.019500071
200	0xbc968198	-0.018372342
201	0xbd2d6f56	-0.042342506
202	0x3d1abb8e	0.037776522
203	0x3cb00ae7	0.021489574
204	0x3b81c927	0.003960747
205	0x3b482641	0.003054038
206	0xbd028aef	-0.03187078
207	0xbd0f5a00	-0.03499794
208	0xbd274df1	-0.040845815
209	0x3ca52acd	0.02016201
210	0xbc97978d	-0.018504882
211	0x3cbb9bef	0.022901503
212	0x3cdc5b05	0.02689887
213	0xbd2ab9bf	-0.041681048
214	0xbb9c1dcf	-0.0047642956
215	0xb9ad85cf	-0.00033096827
216	0xbd3775dd	-0.044790138
217	0xbc97cb16	-0.018529456
218	0x3b99d429	0.004694481
219	0x3d189093	0.03724725
220	0x3c3f8a2c	0.011690658
221	0xbc87dbce	-0.016584303
222	0x3bd444cc	0.006477928
223	0x3cda07c5	0.026615033
224	0x3a68669e	0.0008865389
225	0xbcb010f0	-0.021492451
226	0x3c895b1b	0.016767075
227	0x3d1c96b2	0.03822965
228	0xbd15e8f7	-0.036599126
229	0x3b6dbb7d	0.0036275082
230	0x3b5e87c8	0.0033955444
231	0x3c88c2fd	0.01669454
232	0x3c867a68	0.01641579
233	0xbc83491e	-0.016026076
234	0xbc857d3e	-0.016295072
235	0xbcbb66c5	-0.022876153
236	0xbd005caa	-0.03133837
237	0xbc95f78b	-0.018306514
238	0x3d1a2a19	0.037637804
239	0xbb9a1a26	-0.004702824
240	0x3cb4a4fa	0.022051323
241	0xbc7651a5	-0.015034114
242	0xbca858d1	-0.020550163
243	0xbb7dd8bd	-0.0038733922
244	0x3c639170	0.0138896555
245	0xbba95e97	-0.0051687467
246	0xbaf40aa2	-0.0018618891
247	0x3ca7f5ad	0.02050289
248	0xbcc9c280	-0.024628878
249	0x3d2e4f74	0.04255624
250	0xbcacd64e	-0.021098282
251	0x3cc6d00c	0.024269126
252	0x3ccf3e00	0.025298119
253	0xbcc2d422	-0.023782793
254	0xbbbf397b	-0.0058357096
255	0x3ccf8be1	0.025335254

base_model.model.transformer.h.0.attn.c_attn.lora_B.weight f4 [2304, 8]
0	0x3a653e6d	0.0008744959
1	0xbba18eb0	-0.0049303398
2	0xbbcc0503	-0.0062261834
3	0x3b1a5292	0.002354775
4	0xbbb54d23	-0.005532877
5	0x39e7ec9b	0.00044236038
6	0xbb7685ee	-0.003761645
7	0xbaa01c97	-0.0012215552
8	0xbadc202e	-0.0016794258
9	0xbb9d82a5	-0.004806834
10	0xbb9e9ea6	-0.0048406897
11	0x3b33d069	0.0027437455
12	0xbbd67afc	-0.0065454226
13	0xbb6a2e0d	-0.0035733015
14	0xbba793b1	-0.0051140417
15	0xba7c0182	-0.0009613262
16	0xbae993a4	-0.001782049
17	0x3ba401bc	0.0050050896
18	0x3bd302d5	0.0064395466
19	0xbb3dad09	-0.0028942248
20	0x3b985d21	0.0046497737
21	0xbb0b200a	-0.0021228814
22	0x3b6bb35c	0.003596506
23	0x3ac0d65d	0.0014712323
24	0xbaa90a84	-0.0012896811
25	0x3b8c24da	0.004276854
26	0x3ba25af7	0.0049546915
27	0xbb0c9928	-0.0021453593
28	0x3b4fa28e	0.0031682584
29	0xbb26f3e2	-0.0025474955
30	0x3b6143b8	0.003437264
31	0xb8249406	-3.9238505e-05
32	0x3a243588	0.00062640803
33	0x3ad5fe92	0.0016326478
34	0x3a5bd5e5	0.000838606
35	0x3a9479d5	0.0011327813
36	0x3b6f6f4b	0.0036534842
37	0x3af0f216	0.0018382694
38	0x3b1ee2a5	0.0024243977
39	0xb9ba0e81	-0.0003548749
40	0x3a96bc2d	0.0011500173
41	0xba414d54	-0.00073738885
42	0xba0aa558	-0.00052889204
43	0x3a72df84	0.0009264874
44	0x3b0d1d36	0.0021532304
45	0x3b5643e2	0.003269427
46	0xba93f0e3	-0.0011287
47	0x3b2910c8	0.0025797356
48	0xba6698ad	-0.0008796554
49	0x3b9024bd	0.004398911
50	0x3b9b564f	0.0047405134
51	0x3a95f4d5	0.0011440763
52	0x3bc54a19	0.006020796
53	0x3b338262	0.0027390947
54	0xba8c223d	-0.0010691356
55	0x3b942e5f	0.0045221294
56	0x3a67b221	0.0008838494
57	0xbb9fcf08	-0.004876975
58	0xbbbd8ba5	-0.005784469
59	0x3b01ae87	0.0019787864
60	0xbbd7148e	-0.0065637296
61	0xb8e3ed80	-0.00010868441
62	0xbb55f8f5	-0.003264961
63	0xbb4303e6	-0.0029756962
64	0x3a48d801	0.00076615816
65	0xbb3395d9	-0.0027402549
66	0xbb7c06fa	-0.0038456307
67	0x3b5e1478	0.0033886712
68	0xbb781cd4	-0.003785898
69	0xbb69939c	-0.003564096
70	0xb987368a	-0.0002578984
71	0xbb7f18e6	-0.0038924753
72	0x3a9d5c33	0.0012005627
73	0xbb4a2432	-0.0030844328
74	0xbb7eec31	-0.0038898105
75	0xb8971909	-7.204904e-05
76	0xbae97012	-0.0017809889
77	0x3b72c636	0.0037044412
78	0xbae8fcb7	-0.001777551
79	0x3a80791b	0.0009801717
80	0x3a03f1f3	0.00050333067
81	0xbb33fb9c	-0.0027463203
82	0xbb6f1bc1	-0.0036485048
83	0x3b27eb3d	0.002562239
84	0xba7cbbaf	-0.0009641004
85	0x3b1b82e9	0.0023729152
86	0xbad9152c	-0.0016562096
87	0xba83fde1	-0.0010070169
88	0xbaeeca56	-0.001821826
89	0x3b80b738	0.0039280914
90	0x3bb0ed35	0.005399371
91	0xbb09cb53	-0.0021025732
92	0x3acb9b18	0.0015533892
93	0xbad319b7	-0.0016105686
94	0xba15dca2	-0.0005716776
95	0x3b28b3f2	0.0025742021
96	0xb9892792	-0.00026160158
97	0x3bc85164	0.006113218
98	0x3bd7f1fd	0.0065901265
99	0xbb2334ac	-0.002490322
100	0x3be885ca	0.007096027
101	0x3a13af9a	0.00056337717
102	0x3b9981e9	0.004684676
103	0x3a5d74a8	0.0008447864
104	0x3a9da52e	0.0012027377
105	0x3a765f17	0.0009398325
106	0x3b15622e	0.0022794115
107	0xbb050249	-0.0020295552
108	0x3b6e9ec1	0.0036410543
109	0x3b306d85	0.0026920747
110	0x3a64a8fd	0.0008722691
111	0x3b258839	0.0025258197
112	0x39ff1a23	0.00048656864
113	0x3bd380ba	0.0064545544
114	0x3beabd69	0.0071636927
115	0xbb6a49f2	-0.0035749641
116	0x3bf86939	0.007580903
117	0x3a83bfa0	0.0010051616
118	0x3baa8f3e	0.005205064
119	0x3abb523a	0.0014291473
120	0x3919d5dc	0.00014670886
121	0x3bb47fa9	0.0055083823
122	0x3bd15275	0.0063880035
123	0xbace7111	-0.0015750249
124	0x3be12972	0.0068713957
125	0x3a08bfa3	0.00052165444
126	0x3b5a7c29	0.0033338165
127	0x3af8905b	0.001896392
128	0x3a515b25	0.0007986299
129	0x3bc2133a	0.005922702
130	0x3bdd75f2	0.006758445
131	0xbaf1e4b7	-0.0018455003
132	0x3bf727bf	0.00754258
133	0x3a287d9f	0.00064274104
134	0x3b8b59bc	0.0042526405
135	0x3ae73e18	0.0017642407
136	0xb7fd670e	-3.0207939e-05
137	0xbbbee277	-0.0058253366
138	0xbbe13907	-0.0068732533
139	0x3b8e3d9d	0.004340841
140	0xbbcdd542	-0.006281526
141	0xba288c8d	-0.0006429635
142	0xbbc07f9c	-0.005874587
143	0xba036a43	-0.00050130876
144	0x3ae4d316	0.0017457928
145	0x3b5b4eda	0.0033463747
146	0x3b640c87	0.0034797506
147	0xb85d7143	-5.279599e-05
148	0x3bbd6190	0.0057794526
149	0x3b6963c1	0.0035612436
150	0x3b81b123	0.003957884
151	0xb9fe4b6c	-0.0004850285
152	0x3996412a	0.0002865878
153	0x39b1553e	0.0003382358
154	0xb83248b9	-4.2506235e-05
155	0x3a89ffe8	0.0010528537
156	0x3ab0205d	0.0013437379
157	0xba1d5259	-0.00060013455
158	0x3b35986d	0.002770926
159	0xbb0a4070	-0.0021095537
160	0xb99148c9	-0.00027710784
161	0xbb9d8828	-0.004807491
162	0xbbd7e89b	-0.006589008
163	0x3b6e1d55	0.0036333401
164	0xbbb860c9	-0.005626772
165	0xbaeefc8b	-0.0018233223
166	0xbb7ab6ab	-0.0038255851
167	0xbb62ee6d	-0.0034626976
168	0xbaa2ad76	-0.0012411315
169	0xbba5f01d	-0.005064024
170	0xbbc227fd	-0.005925177
171	0x3a75a56a	0.0009370657
172	0xbbd0b3a6	-0.006369072
173	0xb99bf576	-0.00029746786
174	0xbb855398	-0.004068803
175	0x3812dc3b	3.5014218e-05
176	0xb989a591	-0.00026254033
177	0x3bbfaa49	0.005849157
178	0x3bdfedde	0.006833776
179	0xbb44fb3c	-0.0030056974
180	0x3be85ac3	0.0070908978
181	0x3a338af5	0.00068490143
182	0x3b97e7bb	0.0046357787
183	0x3b388fca	0.0028161877
184	0xb9a65d4b	-0.00031731496
185	0xbb38e500	-0.0028212667
186	0xbb9caef7	-0.0047815996
187	0x3adbc559	0.0016767188
188	0xbba33a28	-0.004981298
189	0xbb52a850	-0.003214378
190	0xbb5437da	-0.0032381923
191	0xbaeddbea	-0.0018147205
192	0x3ace166d	0.0015723236
193	0x3b754405	0.0037424576
194	0x3b88f8b5	0.004180039
195	0xbb36b776	-0.0027880347
196	0x3b6f101e	0.0036478112
197	0x3954f44f	0.00020308908
198	0x3b822636	0.0039718403
199	0xba605ca1	-0.00085587247
200	0xba7205b8	-0.00092324195
201	0x3b86194c	0.004092371
202	0x3b99940d	0.0046868385
203	0xbb60646e	-0.0034239548
204	0x3b03a99e	0.0020090113
205	0xba94e7bb	-0.0011360565
206	0x3afb4b96	0.0019172307
207	0x3ad4a9b6	0.0016224894
208	0xba022e3d	-0.00049659965
209	0x3bc87179	0.0061170426
210	0x3be8a638	0.007099893
211	0xbb79e34f	-0.0038129871
212	0x3bd092df	0.0063651646
213	0x39a0ac95	0.00030646162
214	0x3b824e8e	0.0039766496
215	0x3aeb60d1	0.0017957931
216	0xb99d12b8	-0.0002995932
217	0x3b2a755c	0.0026009893
218	0x3b2ca364	0.0026342506
219	0x3ac8c70c	0.001531811
220	0x3b8932fa	0.004186985
221	0xbb1ce1d2	-0.002393831
222	0x3b7a54a5	0.0038197425
223	0xbb14706a	-0.0022650012
224	0x3b4072c3	0.0029365278
225	0xbb15a0c9	-0.002283143
226	0xbb768bfc	-0.0037620058
227	0x3a9b2640	0.0011836961
228	0x3a861777	0.0010230382
229	0x3b3d596c	0.002889241
230	0x3b4de38d	0.0031416148
231	0xbb63ee32	-0.0034779427
232	0x3ae91e5c	0.0017785537
233	0x3b55ed62	0.0032642712
234	0x3b88165b	0.0041530556
235	0xbad3c8d3	-0.0016157873
236	0x3b8efaa7	0.004363376
237	0x3b74a2cd	0.0037328482
238	0x3ad5b0ca	0.0016303298
239	0x3a5bae1d	0.0008380132
240	0x3a89e96f	0.0010521839
241	0xbbb198ad	-0.0054198117
242	0xbbd7428c	-0.0065692123
243	0x3a98417b	0.0011616194
244	0xbbd29ca3	-0.006427364
245	0x3a9e456e	0.0012075135
246	0xbb6fe25c	-0.0036603427
247	0xba64193e	-0.0008701271
248	0x3a401fd3	0.0007328961
249	0xbad34ab8	-0.001612029
250	0xbb2d47dd	-0.002644054
251	0x3ac3fbb1	0.0014952329
252	0x3b500fe7	0.003174776
253	0x3b06237c	0.0020467928
254	0x3af8c9e2	0.0018981064
255	0x3901c91f	0.00012377322

base_model.model.transformer.h.1.attn.c_attn.lora_A.weight f4 [8, 768]
0	0xbcaf9d58	-0.021437332
1	0x3caf04df	0.021364627
2	0x3bfd30e6	0.0077267764
3	0xbb96558f	-0.004587836
4	0x3c6f87a7	0.014619744
5	0x3ca4f538	0.02013646
6	0xbc8a9cf0	-0.016920537
7	0xb678ebed	-3.7092207e-06
8	0xbcc11719	-0.023570584
9	0xbd28cc95	-0.04121073
10	0xbcc82d98	-0.024435803
11	0x3bae780a	0.0053243684
12	0xbcf2613e	-0.029587384
13	0x3d2780ae	0.040894203
14	0xbbee9120	-0.007280484
15	0x3cdc1f6c	0.026870452
16	0x3bce585b	0.006297154
17	0x3c4e678e	0.012597932
18	0x3bbcad4c	0.0057579633
19	0xbcbf4a9e	-0.02335101
20	0xbb460969	-0.0030218011
21	0xbd0b251e	-0.033970945
22	0xbcc80790	-0.024417669
23	0x3d23873e	0.0399239
24	0xbc889bbd	-0.016675824
25	0xbcc70172	-0.024292681
26	0x3c999dc9	0.018751996
27	0xb9d9bd27	-0.00041530395
28	0x3ca7ff7c	0.020507567
29	0x3d39f4e1	0.04539955
30	0x3c32145e	0.010869114
31	0x3ceecdd3	0.029150879
32	0x3be7cc73	0.007073933
33	0x3cb90476	0.022585135
34	0xbc4f59d3	-0.012655693
35	0xbbee0464	-0.007263707
36	0xba0d33e7	-0.0005386457
37	0xbcc41b66	-0.023938846
38	0xbb949ef7	-0.0045355516
39	0x3c226239	0.009911113
40	0xbc432366	-0.011910295
41	0x3d039ef2	0.032134004
42	0xbbf68757	-0.007523458
43	0x3be6a29d	0.007038428
44	0xbca76ccf	-0.020437626
45	0x3c98d20a	0.018654842
46	0xbc412ba7	-0.011790193
47	0x3d12570a	0.03572754
48	0xbd16a34f	-0.036776837
49	0x3cb13e2c	0.021636091
50	0x3d084f73	0.033278894
51	0xbd281b03	-0.041041385
52	0xbcba8060	-0.022766292
53	0x3a9771c5	0.0011554292
54	0xbba06eec	-0.0048960354
55	0x3cb545ac	0.022127949
56	0xbc28d503	-0.010304692
57	0xbc033dec	-0.008010369
58	0xbd08475e	-0.033271186
59	0x3ba9de6a	0.0051839845
60	0x390c27d4	0.00013366278
61	0x3cc07b8d	0.023496414
62	0x3b69ffcb	0.0035705443
63	0xbd23a5a4	-0.03995289
64	0xbd1b65ba	-0.03793881
65	0x3c9e7cca	0.019346613
66	0x3ce4a629	0.027911263
67	0xbca1840a	-0.019716281
68	0xbcebbc37	-0.028776271
69	0xbc9836fb	-0.018580904
70	0x3cc22519	0.02369933
71	0xbc4e860c	-0.012605201
72	0xbb22cbe3	-0.0024840764
73	0x3cc16a12	0.023610149
74	0x3c24b160	0.010052055
75	0x3cd7b672	0.026332114
76	0xbc01b5e0	-0.007916898
77	0x3cfaa8f0	0.030598134
78	0xbd0a8e67	-0.03382721
79	0x3c814039	0.015777694
80	0xbc4dfec4	-0.012572948
81	0x3cd2d363	0.025735563
82	0x3c8177bf	0.01580417
83	0xbc550f46	-0.01300413
84	0x3bc36f2d	0.005964181
85	0x3cf91a0c	0.030407928
86	0xbd2e5121	-0.04255784
87	0xbc75d22c	-0.015003722
88	0x3d21b341	0.03947759
89	0xbb6b8559	-0.0035937636
90	0xbc3921d7	-0.011299572
91	0x3bee0ed8	0.007264953
92	0xbaff6b32	-0.0019486903
93	0x3ce4bba6	0.027921509
94	0xbcbfe90a	-0.023426551
95	0x3c334aee	0.010943158
96	0x3b482e4c	0.0030545173
97	0xbbb65551	-0.0055643697
98	0xbc50e55a	-0.012749994
99	0x3c9e4b2c	0.019322954
100	0xbc0c6c63	-0.008570763
101	0xbc7afc10	-0.015318885
102	0xbc565ec6	-0.013084119
103	0x3d2de4c5	0.0424545
104	0x3cfbf93b	0.03075849
105	0x3c980c1b	0.01856046
106	0xbb16d5f3	-0.0023015707
107	0x3d390436	0.04517003
108	0x3cd42c4f	0.025900034
109	0x3d232193	0.03982694
110	0x3d2d7235	0.042345244
111	0xbc6b8c53	-0.014376718
112	0xbcdc23b0	-0.026872486
113	0xbcbbc6f3	-0.022922015
114	0x3bb4a955	0.00551335
115	0x3d0b642e	0.034031086
116	0xbc975780	-0.01847434
117	0xbc817e2e	-0.015807237
118	0x3cb4f2e7	0.022088481
119	0x3c9f60c3	0.01945532
120	0x3d30e409	0.04318622
121	0x3c27bdb7	0.010238103
122	0x3c094855	0.008379062
123	0xbacd6e46	-0.0015673123
124	0x3d284992	0.041085787
125	0xbc276d75	-0.010218968
126	0x3b56fa85	0.003280313
127	0x3c7eb629	0.01554636
128	0x3c075f37	0.008262447
129	0x3ab7419b	0.0013981344
130	0xbcc62970	-0.02418968
131	0x3c88d209	0.016701715
132	0x3c9579e9	0.018246608
133	0x3cb6fa8e	0.02233627
134	0x3c3180d1	0.010833935
135	0xbba2c0c8	-0.004966829
136	0x3c42bc12	0.01188566
137	0x3cb1174c	0.021617554
138	0xbc968280	-0.018372774
139	0x3c3ed81a	0.011648202
140	0x3cacb21f	0.021081029
141	0xbc1df81a	-0.009641672
142	0xbca6dd7b	-0.020369282
143	0x3c643730	0.013929173
144	0x3bd04306	0.006355646
145	0xbd214744	-0.039374605
146	0xbabc6f69	-0.0014376465
147	0xbc8b8c2c	-0.017034613
148	0x3cd34934	0.025791742
149	0xbd2c48b4	-0.042061523
150	0xbb832000	-0.0040016174
151	0x3b0978db	0.0020976576
152	0xbcb59938	-0.022167787
153	0xbd02f7c8	-0.031974584
154	0x3d2507d4	0.04029067
155	0x3ce11ea6	0.027480435
156	0x3c9c3c37	0.019071681
157	0x3b240834	0.0025029304
158	0xbc7795e7	-0.015111423
159	0x3c04083b	0.008058603
160	0xb9df45d2	-0.00042585895
161	0x3cac5cf6	0.021040421
162	0xbc464b6c	-0.012102943
163	0xbd0112eb	-0.031512182
164	0xbd15f35b	-0.036609035
165	0xbc8277f3	-0.015926337
166	0x3cab461b	0.020907452
167	0x3c988a91	0.018620761
168	0xbc06df3c	-0.008231934
169	0x3d07a016	0.033111654
170	0xbb7810fc	-0.003785192
171	0x3d030549	0.031987462
172	0x3d1c5683	0.03816844
173	0x3cd36bd0	0.025808245
174	0xbab66de0	-0.0013918243
175	0x3cc675c1	0.024226071
176	0xbc482415	-0.012215634
177	0x3cc564e9	0.02409597
178	0x3ba11514	0.004915843
179	0xbba0609c	-0.0048943292
180	0x3be3d619	0.0069530127
181	0xbbcfe531	-0.0063444604
182	0x3c491456	0.012272915
183	0xbc89bbbb	-0.01681315
184	0x3be1ae41	0.0068872278
185	0xbd05846a	-0.032596983
186	0x3c80bcaf	0.015714971
187	0xbbab3fb6	-0.005226101
188	0x3ce7fc87	0.028318657
189	0xbbee459e	-0.0072714826
190	0x3b0c18a4	0.0021376992
191	0xbd054c19	-0.032543276
192	0x3c8a02c0	0.016847014
193	0x3c1e4006	0.009658819
194	0x3d07d779	0.033164475
195	0xbb58c329	-0.003307531
196	0xbb87361e	-0.0041263243
197	0x3c3d5ed3	0.011558252
198	0x3d19977d	0.037497986
199	0x3ce90baa	0.028447945
200	0x3d07710b	0.03306679
201	0x3c212810	0.009836212
202	0x3c73e935	0.014887144
203	0x3c6b41f4	0.014358986
204	0xbcb7acff	-0.022421358
205	0x3c2a651d	0.010400084
206	0xbd083431	-0.0332529
207	0x3c9c51dc	0.019082002
208	0x3cdf28bf	0.027241109
209	0x3b9f45e2	0.0048606256
210	0xbc965def	-0.018355338
211	0x3d120510	0.03564936
212	0x3cdea00b	0.027175924
213	0x3cf008f9	0.029301153
214	0xbc95f1b6	-0.018303733
215	0xbca17cba	-0.019712795
216	0xbd0d7599	-0.034535978
217	0x3c98d20c	0.018654846
218	0xbc614148	-0.013748474
219	0x3c53b264	0.01292095
220	0x3c142436	0.0090418365
221	0x3cb73211	0.02236274
222	0x3cea2c94	0.02858571
223	0x3c818cc8	0.0158142
224	0xbc6c8911	-0.014436976
225	0xbcd0cdf0	-0.025488824
226	0xbbe6635a	-0.0070308866
227	0x3cf05ab1	0.02934012
228	0xbd11d2cc	-0.035601422
229	0xbbdb4d27	-0.006692547
230	0x3ca8d29c	0.020608239
231	0x3c1a5801	0.009420396
232	0xbcbdd95a	-0.02317493
233	0xb8057909	-3.1822394e-05
234	0x3b151853	0.0022750094
235	0xbd133af5	-0.035944898
236	0xbcbe93be	-0.023263808
237	0x3d296b93	0.041362356
238	0x3ada2b1b	0.0016644927
239	0xbcce61a4	-0.025193043
240	0xbceb90c3	-0.028755551
241	0xbce37182	-0.027764086
242	0x3c05a331	0.008156584
243	0xbc90cdf9	-0.01767634
244	0x3a1c4c45	0.0005962293
245	0x3c5cd559	0.0134786
246	0x3c4f4fe3	0.012653324
247	0x3c66702f	0.014064833
248	0xbd1938b5	-0.037407596
249	0x3c22ae24	0.009929214
250	0x3d114d57	0.035474148
251	0xbc882361	-0.016618432
252	0xbd09dd03	-0.03365804
253	0x3c6cd24b	0.014454435
254	0x3beffd4a	0.0073238956
255	0xb9ae8c66	-0.0003329247

base_model.model.transformer.h.1.attn.c_attn.lora_B.weight f4 [2304, 8]
0	0xbaec91a8	-0.001804878
1	0x3b55da2f	0.0032631268
2	0x3b23c6f5	0.0024990414
3	0xba9ef836	-0.0012128416
4	0xbadc3be0	-0.0016802512
5	0xbab475ab	-0.0013767978
6	0xbac5a753	-0.0015079774
7	0x3b20194c	0.002442914
8	0x3b18a829	0.002329359
9	0xbb721847	-0.003694074
10	0xbb45de96	-0.0030192486
11	0x3b153e99	0.0022772907
12	0x3b469c89	0.0030305705
13	0xb9851658	-0.00025384384
14	0x3aedcca8	0.0018142657
15	0xba1bb072	-0.0005939073
16	0xba845e71	-0.0010098947
17	0x3a50aef9	0.0007960643
18	0x3aa5250b	0.0012599541
19	0xba3d84f6	-0.00072295906
20	0xbab6b3d4	-0.0013939091
21	0x39d3469e	0.0004029767
22	0xb37e8412	-5.92591e-08
23	0xb9ff1eb0	-0.00048660254
24	0x3b5c40f7	0.0033608058
25	0xbb9d6808	-0.0048036613
26	0xbb933b5d	-0.0044931606
27	0x3b082cfc	0.0020778766
28	0x3b995322	0.0046790997
29	0x39eb80bb	0.00044918605
30	0x3b0ddbff	0.002164602
31	0xb9b8ffc6	-0.0003528578
32	0xbb3456db	-0.002751759
33	0x3ae437b8	0.0017411625
34	0x3b246754	0.0025086002
35	0xbb1246e5	-0.0022320088
36	0xbb685128	-0.0035448764
37	0xbb07ac0c	-0.0020701913
38	0xbaefe861	-0.0018303507
39	0xbadd750f	-0.0016895848
40	0x3b934ab2	0.0044949884
41	0xbbdd057b	-0.006745038
42	0xbbbff74b	-0.005858337
43	0x3aefd051	0.0018296336
44	0x3bdb39a4	0.006690221
45	0x3b648a14	0.003487234
46	0x3adea956	0.0016987722
47	0x38e1860f	0.000107538064
48	0xbb394ede	-0.0028275768
49	0x3b644f64	0.003483736
50	0x3b43a943	0.0029855527
51	0xbb334c40	-0.002735868
52	0xbb453e76	-0.0030097044
53	0x3819afd1	3.6641784e-05
54	0xba7fc6cc	-0.0009757101
55	0xba155154	-0.0005696018
56	0x3afb3326	0.0019165024
57	0xbb05a467	-0.002039218
58	0xbaf7bdb8	-0.0018901145
59	0x3a9d1b75	0.0011986332
60	0x3b362903	0.002779544
61	0xb99a2c89	-0.0002940635
62	0xb95fdbba	-0.00021348792
63	0x3ab29c50	0.0013626907
64	0x3b15a691	0.0022834877
65	0xbb67d0d9	-0.0035372286
66	0xbb490cd5	-0.0030677815
67	0x3b073010	0.0020628013
68	0x3b501703	0.0031751997
69	0xba7a8adf	-0.00095574366
70	0x39881d64	0.0002596184
71	0x3aafe938	0.0013420945
72	0xbb33e99d	-0.0027452477
73	0x3b30ca34	0.0026975991
74	0x3b4a2d15	0.0030849625
75	0xbb326a83	-0.002722413
76	0xbb5d60ff	-0.0033779738
77	0xbac93343	-0.001535036
78	0xba053ec1	-0.00050828984
79	0xbab5b2ed	-0.0013862528
80	0x3b454aba	0.0030104355
81	0xbb968e66	-0.004594612
82	0xbb70a3ec	-0.0036718799
83	0x39d1fa6b	0.00040050162
84	0x3b852435	0.004063154
85	0x3b5fa057	0.003412267
86	0x3aa06305	0.0012236541
87	0xba9f107a	-0.0012135648
88	0xba29d75f	-0.0006478931
89	0xba41313f	-0.0007369704
90	0xb8cb322a	-9.689138e-05
91	0x398e519f	0.00027145163
92	0x3a2e9778	0.0006660144
93	0xbb49f9d1	-0.0030819068
94	0xba97855a	-0.0011560128
95	0x3b00fdcf	0.0019682532
96	0x3b556bc6	0.0032565459
97	0xbb97da76	-0.004634197
98	0xbb80e699	-0.0039337394
99	0x3af24539	0.0018483765
100	0x3b8d157e	0.0043055406
101	0xb9a3a94e	-0.00031215925
102	0x3998750f	0.00029078915
103	0x3acdb2c0	0.001569353
104	0xbab3232b	-0.0013667097
105	0xb9e21494	-0.0004312141
106	0x3a5f29e8	0.00085130194
107	0xba15b973	-0.0005711533
108	0xb7b21c35	-2.1232388e-05
109	0xbb5b3c41	-0.0033452662
110	0xbad1a04c	-0.0015993207
111	0x3b146985	0.0022645902
112	0xba846587	-0.0010101058
113	0x3b63969d	0.0034727224
114	0x3b1d517c	0.0024004867
115	0xba34b5dc	-0.0006893554
116	0xbb25bbab	-0.002528886
117	0x3ac01262	0.0014653916
118	0x38061df8	3.1976e-05
119	0xb98330c3	-0.00025022597
120	0x3a472fdd	0.000759838
121	0xbb6002d2	-0.0034181369
122	0xbb587552	-0.0033028913
123	0xbaa58b2d	-0.0012629979
124	0x3b8687b3	0.004105532
125	0xba32db8e	-0.00068228773
126	0xba947d96	-0.0011328931
127	0x3a540b0d	0.0008088805
128	0xbb8d7e08	-0.0043180026
129	0x3b72c930	0.0037046187
130	0x3b84304f	0.004034079
131	0xbb67d528	-0.0035374854
132	0xbb84f7e3	-0.0040578707
133	0xbb8a9eef	-0.004230372
134	0xbb3532b4	-0.002764863
135	0x3b1a5701	0.0023550394
136	0x3b1bf412	0.00237966
137	0x3abbce5c	0.0014328468
138	0xb91a1943	-0.00014695995
139	0x3b4d88cb	0.0031362053
140	0xbad9fa7b	-0.0016630435
141	0x3b82ba3d	0.0039894865
142	0x3b12ca3f	0.002239838
143	0xbb3e3580	-0.0029023588
144	0x3a272070	0.0006375378
145	0xbb1bc30b	-0.0023767378
146	0xbb2446c1	-0.0025066587
147	0xba461039	-0.0007555518
148	0x3b04dbe9	0.0020272678
149	0x3ace7dbe	0.0015754027
150	0x3ae6d73e	0.0017611755
151	0xbac355fd	-0.0014902946
152	0xbb8eef4e	-0.0043620234
153	0x3bbfe751	0.0058564325
154	0x3bc53b74	0.0060190503
155	0xbabb5ba6	-0.0014294281
156	0xbbc26726	-0.0059327064
157	0xbb9f9ba8	-0.0048708506
158	0xbb151f4c	-0.002275425
159	0x3b296eed	0.002585347
160	0xbbcf2045	-0.0063209855
161	0x3be7e68a	0.007077043
162	0x3bfcf920	0.0077201277
163	0xbb95e48e	-0.004574365
164	0xbbfe2439	-0.007755783
165	0xbbc2a9a9	-0.005940635
166	0xbb82a989	-0.0039874953
167	0x3b785b34	0.0037896158
168	0x3b56e31b	0.0032789174
169	0xbb8a5322	-0.004221336
170	0xbb89d910	-0.004206784
171	0x3aeb3b15	0.0017946685
172	0x3b86dd76	0.0041157557
173	0x3a115a8f	0.00055448053
174	0x3af149da	0.001840885
175	0xbac55132	-0.0015054105
176	0xbb6f2654	-0.0036491351
177	0x3b932c9f	0.0044914032
178	0x3b979310	0.0046256855
179	0xbb6195b8	-0.0034421515
180	0xbb9e94bd	-0.0048395083
181	0xbb621c0d	-0.0034501583
182	0xbb4ca1ed	-0.0031224445
183	0x3b303dfc	0.0026892414
184	0xbaddfc33	-0.0016936123
185	0x3b22daf4	0.0024849745
186	0x3b052099	0.002031362
187	0xbb15813f	-0.0022812632
188	0xbb0f40a6	-0.0021858602
189	0x3a2ae9f1	0.00065198453
190	0xba93bf15	-0.0011272157
191	0xb9f1e120	-0.00046134833
192	0x3b788dfd	0.0037926428
193	0xbb92f251	-0.004484453
194	0xbb9bfcd0	-0.004760362
195	0x3b3f478f	0.002918694
196	0x3b9158a4	0.0044356156
197	0x3b175acf	0.0023094898
198	0x3b5e33ef	0.0033905467
199	0xbac5db05	-0.001509518
200	0x3a01cb7b	0.00049512804
201	0xb980fe57	-0.0002460356
202	0xb9cd2e92	-0.00039135345
203	0x3ab95962	0.0014141018
204	0x39eddc21	0.0004536817
205	0xbac9ce1a	-0.0015396506
206	0x392b9b6c	0.0001636573
207	0x3a92c43c	0.0011197398
208	0xbb884bd6	-0.004159431
209	0x3b8094b4	0.003923977
210	0x3b7cde13	0.0038584515
211	0xbb594910	-0.003315512
212	0xbb8ba135	-0.0042611607
213	0xbb8026c4	-0.003910871
214	0xbb08c953	-0.0020871952
215	0x3ac5c28c	0.0015087887
216	0xbb96f325	-0.004606622
217	0x3b9e8a1d	0.0048382417
218	0x3b99a477	0.004688795
219	0xbb0df7f9	-0.0021662696
220	0xbba1bf24	-0.004936116
221	0xbbadbb49	-0.005301867
222	0xbb10814f	-0.002204973
223	0x3b6e74be	0.0036385502
224	0xb90d083f	-0.0001344988
225	0xbae5f362	-0.0017543847
226	0xbae7bffa	-0.0017681115
227	0xbaed8e57	-0.0018124086
228	0x3b5fd1f7	0.0034152248
229	0xba36f6bd	-0.0006979516
230	0xbb3695bb	-0.0027860242
231	0x3b35c587	0.0027736144
232	0xbba3d6e1	-0.004999981
233	0x3be07a16	0.0068504913
234	0x3bca72b8	0.0061782263
235	0xbb487a4d	-0.0030590475
236	0xbbdcb706	-0.0067356853
237	0xbb7b3cfa	-0.0038335905
238	0xbac313ab	-0.0014883181
239	0xba13aef4	-0.0005633675
240	0x3a853b7e	0.0010164825
241	0xbb0300a0	-0.0019989386
242	0xbadbb677	-0.0016762753
243	0x390ed49c	0.00013621378
244	0x391d1f50	0.00014984352
245	0x3b367223	0.0027839027
246	0x3aa5a279	0.0012636922
247	0xbb5e679c	-0.0033936268
248	0xb8b1d551	-8.479751e-05
249	0xba9aa98d	-0.0011799798
250	0xba7d1ae6	-0.0009655192
251	0x36734ec3	3.6255667e-06
252	0x3b5b6518	0.0033477005
253	0xbaeaa97f	-0.0017903297
254	0xba9486a7	-0.0011331633
255	0x3b256699	0.0025238155

base_model.model.transformer.h.2.attn.c_attn.lora_A.weight f4 [8, 768]
0	0xbcc515c3	-0.024058228
1	0xbc0b1426	-0.0084886905
2	0x3ce9a72e	0.0285221
3	0xbb626676	-0.0034545935
4	0xbaa1cf9a	-0.0012345195
5	0xbbae1088	-0.0053120293
6	0x3b6abdbc	0.0035818657
7	0xbc1cd332	-0.009571837
8	0x3d267c22	0.040645726
9	0x3cbc8798	0.023013875
10	0xbd28931a	-0.041155912
11	0x3d12921a	0.035783865
12	0x3cbc4da2	0.022986237
13	0x3bc39647	0.005968842
14	0x3bc63ae1	0.0060494994
15	0x3d01d414	0.031696394
16	0x3c656dbe	0.014003215
17	0xbca2e551	-0.019884737
18	0x3cbc2190	0.022965223
19	0xbcae3d93	-0.021269595
20	0xbcbdb3ea	-0.023157079
21	0xbbc727e0	-0.0060777515
22	0xbb9db429	-0.0048127365
23	0x3b84cd18	0.0040527694
24	0x3bbb59fb	0.0057175136
25	0x3c4060a4	0.011741791
26	0x3c9b2b48	0.018941537
27	0xbb8be784	-0.004269542
28	0xbc4da66a	-0.012551883
29	0xbbf2ebf6	-0.0074133826
30	0xbc7d52b1	-0.01546161
31	0x3d18739e	0.037219636
32	0xbd35b992	-0.044366427
33	0x3d351733	0.044211578
34	0x3ccdc853	0.025119936
35	0xbccb7afa	-0.024838913
36	0xbc836c4c	-0.01604285
37	0xbcbd88d4	-0.023136534
38	0xbcbfc382	-0.023408655
39	0x3b215b73	0.0024621158
40	0x3cb3778d	0.021907592
41	0x3caa85cb	0.02081575
42	0x3c40ac72	0.011759864
43	0xbc9cd0ad	-0.019142473
44	0xbc8d547b	-0.017252197
45	0x3b854fc6	0.0040683476
46	0x3d33d4b9	0.04390404
47	0xbbc83b62	-0.0061105946
48	0x3caf2a68	0.021382526
49	0xbc427595	-0.011868854
50	0xbcd27041	-0.025688292
51	0xbc7c3586	-0.01539362
52	0x3b71cb1c	0.0036894744
53	0xbd261c79	-0.040554497
54	0xbd234675	-0.039862115
55	0xbc2b483e	-0.010454236
56	0x3c080b4c	0.008303475
57	0xbcb06a83	-0.021535164
58	0xbd04af95	-0.03239401
59	0x3d318b86	0.04334595
60	0x3d1468e1	0.036232833
61	0xbc1635f8	-0.009168141
62	0x3bdd94d1	0.006762125
63	0xbc85719e	-0.016289528
64	0xbc521742	-0.012822928
65	0xbc7387fa	-0.014863962
66	0xbbc3e270	-0.005977921
67	0x3c4e3c0f	0.012587561
68	0xbc4c9ba7	-0.012488282
69	0xbcd02c26	-0.025411677
70	0xbc4a19cb	-0.012335251
71	0x3c97efe6	0.01854701
72	0x3b1dc238	0.0024072062
73	0xbc98c045	-0.018646369
74	0x3c9da516	0.019243758
75	0x3c9f0c76	0.019415122
76	0xbc2b47a0	-0.010454088
77	0xbd1a923c	-0.037737116
78	0xbbe1cc8c	-0.006890839
79	0xbb854d4a	-0.0040680515
80	0xbcb8da69	-0.022565084
81	0x3cec1e97	0.02882318
82	0x3d2475a9	0.040151272
83	0x3ba8f702	0.0051563988
84	0x3ccb45bf	0.024813531
85	0x3cb0624b	0.021531245
86	0x3ceeefef	0.029167144
87	0xbc3e3e3c	-0.0116115175
88	0xbd07bff7	-0.033142056
89	0xbd0d1226	-0.034441136
90	0xbcdca050	-0.026931912
91	0x3c1e2900	0.00965333
92	0x3cc36089	0.023849742
93	0xbd109f7e	-0.035308354
94	0xbc4195f9	-0.011815541
95	0x3c8ed984	0.017437704
96	0x3c204876	0.009782901
97	0x395d546e	0.00021107655
98	0xbc907f8f	-0.01763895
99	0x3c743e05	0.014907365
100	0x3be01992	0.0068389857
101	0xbd0e95ba	-0.03481076
102	0xb7eab028	-2.7977003e-05
103	0xbbb64fe7	-0.0055637243
104	0xbce18645	-0.027529845
105	0x3d08a0d6	0.03335651
106	0x3c7ea711	0.015542761
107	0x3c1fcc10	0.009753242
108	0x3ce9140d	0.028451944
109	0x3b2ac4b7	0.0026057193
110	0xbd0614bc	-0.032734618
111	0xba96586a	-0.0011470441
112	0xbb48ccaf	-0.003063958
113	0xbcb4f389	-0.022088783
114	0x3b4a281b	0.0030846659
115	0x3c2dae5b	0.010600652
116	0xb94788ea	-0.00019029123
117	0xbc249d27	-0.010047234
118	0x3c9b89ee	0.018986668
119	0x3c43b1a0	0.011944205
120	0x3cf12c58	0.02944009
121	0x3ca566a0	0.020190537
122	0xb982dbcd	-0.00024959297
123	0x3c96063d	0.018313522
124	0x3ca3f0d0	0.02001229
125	0x3d062f0d	0.032759715
126	0xbcaa531c	-0.020791583
127	0xbcf41a55	-0.029797712
128	0x3c7c303d	0.01539236
129	0x3d159137	0.03651544
130	0x3cf1fa6c	0.029538356
131	0x3c017658	0.0079017505
132	0x3d384406	0.044986747
133	0xbcde28bc	-0.027119033
134	0xbccb0b84	-0.024785765
135	0x3bcc37f4	0.006232256
136	0xbcaedb2f	-0.02134475
137	0x3c5d735c	0.013516273
138	0x3ca21e37	0.019789798
139	0x3b9e54b2	0.004831874
140	0xbc9b8dd7	-0.018988533
141	0xbc59cd31	-0.01329355
142	0xbc8cf924	-0.017208643
143	0x3d30df6e	0.04318183
144	0x3b898136	0.0041963113
145	0xbca428ab	-0.020038923
146	0x3cbd6992	0.023121629
147	0xbc980135	-0.018555263
148	0xbd20aba2	-0.03922618
149	0x3c8dff4a	0.017333645
150	0xbd3c76a7	-0.046011593
151	0xbc1249df	-0.008928745
152	0xbd313181	-0.0432601
153	0x3c4df3d2	0.012570338
154	0xbc4f2a74	-0.012644399
155	0xbd0a2108	-0.033722907
156	0x3b908b48	0.004411135
157	0x3cbc0729	0.022952633
158	0xbc807cfe	-0.0156846
159	0xbbf92052	-0.00760273
160	0xbd160f7c	-0.03663586
161	0xbc8a6126	-0.016892027
162	0xbd2259d4	-0.039636448
163	0x3c9d1177	0.019173367
164	0x3d000a9e	0.031260125
165	0x3d0ba3e2	0.034091838
166	0xbd392035	-0.04519673
167	0x3c90bf86	0.01766945
168	0xbcebc52c	-0.028780542
169	0x3c88b887	0.016689552
170	0x3c2823b7	0.010262421
171	0xbd25101f	-0.040298577
172	0xbcf74c0e	-0.030187633
173	0xbce51758	-0.027965233
174	0xbd26d662	-0.040731795
175	0xbc768772	-0.015046941
176	0xbb933637	-0.004492547
177	0xbce39d1a	-0.027784873
178	0x3cd1d238	0.025612935
179	0xbd121988	-0.03566888
180	0x3c53a211	0.012917058
181	0xbcbbe6c3	-0.022937184
182	0x3c942648	0.01808466
183	0x3d0ecbb9	0.034862254
184	0xbcd13319	-0.02553706
185	0x3d20105a	0.039078094
186	0xbd3a7653	-0.045523
187	0x3d27c4e7	0.040959265
188	0xbc1e9ac5	-0.009680455
189	0x3c0d17b5	0.008611609
190	0xba66335f	-0.00087814586
191	0xbc7c44a2	-0.015397223
192	0x3d288639	0.04114363
193	0xbc161166	-0.009159422
194	0xbc040a72	-0.008059131
195	0x3b937ed3	0.0045012026
196	0x3cd68965	0.026188562
197	0x3cc9a27a	0.024613608
198	0xbab53f0d	-0.0013827995
199	0x3d00f42f	0.03148287
200	0xbbb00984	-0.005372228
201	0xbd143007	-0.036178615
202	0xbcf15ae2	-0.029462282
203	0xbbfdacf6	-0.007741566
204	0x3d156c12	0.036480017
205	0x3d005839	0.031334136
206	0x3c4458ea	0.011984089
207	0x3bc79412	0.0060906494
208	0xbcbfa69d	-0.023394877
209	0x3a37b9d6	0.00070085877
210	0x3ca60009	0.020263689
211	0x3ca2df00	0.019881725
212	0x3c98ceb5	0.018653253
213	0xbd3543b5	-0.044254024
214	0x3b15cdd5	0.002285828
215	0xbbb12e3d	-0.0054071234
216	0xbc5c0f1a	-0.013431335
217	0xbc15cedc	-0.009143557
218	0x3c140502	0.009034397
219	0xbcc2d51c	-0.02378326
220	0x3cad86ef	0.021182505
221	0x3c1a797c	0.009428378
222	0xbcebcce3	-0.028784221
223	0x3ba65b17	0.0050767767
224	0xbc32285b	-0.010873879
225	0xbb023f96	-0.0019874326
226	0x3cb607d0	0.022220522
227	0x3caa025c	0.020753078
228	0xbc6a29b4	-0.014292169
229	0xbb88877c	-0.0041665416
230	0x3cd3bdb9	0.025847303
231	0xbbd8fba5	-0.0066217952
232	0xbc729d98	-0.014808081
233	0x3caf2c22	0.021383349
234	0x3bd7a4e6	0.0065809367
235	0xbbd3a266	-0.0064585684
236	0xbcd7efc6	-0.02635945
237	0x3b95c01c	0.0045700204
238	0x3cd497b9	0.025951253
239	0xbc94e76d	-0.018176759
240	0x3b32b37d	0.0027267628
241	0x3c6a8ea0	0.014316231
242	0xbc1e9599	-0.009679222
243	0x3b50ba0a	0.003184917
244	0xbd1c751b	-0.038197618
245	0x3d005a0a	0.031335868
246	0x3bb2f7fc	0.005461691
247	0x3c39180c	0.011297237
248	0xbd1110cd	-0.035416413
249	0x3c384248	0.011246271
250	0x3bb19c5d	0.0054202513
251	0xbbd7b4e3	-0.0065828427
252	0xbd31e6d8	-0.04343304
253	0x3d0efb89	0.03490785
254	0x3c1762af	0.009239837
255	0xbd032e78	-0.032026738

base_model.model.transformer.h.2.attn.c_attn.lora_B.weight f4 [2304, 8]
0	0x3a1ab6c5	0.00059018686
1	0x3a3797a1	0.00070034905
2	0x392e8661	0.00016643993
3	0x3a228c34	0.00062007015
4	0x3a83f0d9	0.0010066285
5	0xb9b050b4	-0.00033629464
6	0xba97a02d	-0.0011568122
7	0xba560f2a	-0.0008165712
8	0xba1115b2	-0.0005534544
9	0xbaba4991	-0.0014212598
10	0xb91d95ef	-0.00015028541
11	0x39e6da81	0.00044031817
12	0x39c0980c	0.00036734377
13	0x3ae61b7d	0.00175558
14	0xb97be6b9	-0.00024023176
15	0x3ad3d801	0.0016162397
16	0x3a98b450	0.0011650417
17	0x3a874d8b	0.0010322792
18	0xbb195c47	-0.002340095
19	0x3b0ca878	0.002146272
20	0xbb7343da	-0.00371193
21	0xbaec736f	-0.0018039773
22	0xbb05ad9a	-0.0020397664
23	0xba9b8012	-0.001186373
24	0x3a445a38	0.000749025
25	0x3a519863	0.00079954247
26	0xba800b05	-0.0009768909
27	0x3a77eb1d	0.0009457337
28	0xba1d5cb8	-0.0006002891
29	0xba3de49d	-0.0007243844
30	0xba714a36	-0.00092044787
31	0xbab694b9	-0.0013929821
32	0xbb64dbc5	-0.0034921032
33	0xbad64327	-0.0016346917
34	0x3a2e8b8c	0.00066583673
35	0xbafd6c07	-0.0019334563
36	0x399f7690	0.0003041518
37	0x3a244905	0.0006266984
38	0x3af7bce6	0.0018900901
39	0x3a489621	0.00076517655
40	0x3aa05795	0.0012233133
41	0x39fbf003	0.00048053273
42	0xbae15fef	-0.0017194728
43	0x3ac83d6e	0.0015277097
44	0xbaff0d7e	-0.0019458977
45	0xbabe1d4b	-0.001450458
46	0xba6c3cfe	-0.0009011774
47	0xba0e5d07	-0.0005430732
48	0xbb38473f	-0.0028118638
49	0xba91ce9f	-0.00111242
50	0xb90b7b4d	-0.00013302006
51	0xbb42f060	-0.0029745325
52	0xb8ebfca9	-0.00011252735
53	0x3b29586e	0.0025840062
54	0x3ab747d5	0.00139832
55	0x3b45f679	0.0030206724
56	0xbae12d36	-0.0017179612
57	0xba66bc18	-0.0008801832
58	0x39a0a176	0.00030637876
59	0xba6958ef	-0.0008901497
60	0xbac4c0ec	-0.0015011108
61	0xb9da7b15	-0.00041671903
62	0x3a595d27	0.0008291774
63	0x3a6609a4	0.000877524
64	0xba6ff44d	-0.000915353
65	0xba690e74	-0.00088903983
66	0x3b4ade71	0.003095534
67	0xba851309	-0.0010152768
68	0x3b64d208	0.0034915227
69	0x3ab615c6	0.0013891987
70	0x3b441251	0.0029918144
71	0x3ab6eb0c	0.0013955547
72	0x3a989b32	0.0011642931
73	0xba14f670	-0.0005682474
74	0x39abbe15	0.00032757284
75	0x39dc0a74	0.00041969458
76	0x3b1caedf	0.0023907942
77	0x3acbc695	0.0015546853
78	0xb867a433	-5.5227614e-05
79	0x3ad9e3ed	0.0016623713
80	0xbb390a3b	-0.0028234858
81	0xbade4edb	-0.0016960757
82	0x3917fb0a	0.00014494002
83	0xbb12ecac	-0.00224189
84	0x3a980c86	0.0011600412
85	0x3b032a2c	0.002001415
86	0x3b30f2ec	0.0027000261
87	0x3b3c8e2c	0.0028771264
88	0x3a34e697	0.00069008156
89	0x3a987b03	0.001163334
90	0xbb4dbf46	-0.0031394525
91	0x3a922358	0.0011149449
92	0xbb800046	-0.0039062826
93	0xbad0063c	-0.0015870999
94	0xbae59816	-0.0017516639
95	0xba8f359f	-0.0010926015
96	0xbb0ba66a	-0.0021308907
97	0xbb073b17	-0.0020634586
98	0x3b679fd7	0.0035343075
99	0xbb24dd7b	-0.0025156427
100	0x3b818a1b	0.003953231
101	0x3b118a3d	0.002220764
102	0x3b869336	0.0041069044
103	0x3b2a5c9f	0.0025995148
104	0x3b5e7c41	0.0033948573
105	0x3acc61d8	0.0015593125
106	0xbad78b3c	-0.0016444693
107	0x3b5dbb87	0.0033833699
108	0xbb051e00	-0.002031207
109	0xbadf4ae0	-0.0017035864
110	0xbb62b3a1	-0.003459193
111	0xbb0acf09	-0.0021180531
112	0xbb31b7d1	-0.002711762
113	0xbb0b7bd6	-0.0021283529
114	0x3b3ae27b	0.002851634
115	0xbb6e144c	-0.0036328016
116	0x3b194c0c	0.0023391275
117	0x3ae40a34	0.001739806
118	0x3b534575	0.0032237445
119	0x3afd8525	0.0019342048
120	0x39d91882	0.00041407725
121	0x3a6d9019	0.0009062305
122	0xbb46711a	-0.0030279816
123	0x3a98a63d	0.0011646223
124	0xbb6a3693	-0.0035738095
125	0xbac5a609	-0.001507939
126	0xbac55a4f	-0.0015056821
127	0xba846c2c	-0.0010103039
128	0x3abc2402	0.0014353993
129	0x3a779056	0.000944381
130	0x3a6c8672	0.00090227195
131	0x3a2d2082	0.00066042703
132	0x3ae9828d	0.0017815396
133	0xb9e45e87	-0.00043557977
134	0xb99663da	-0.00028684625
135	0xba163af4	-0.00057308306
136	0x3a3d85b6	0.00072297023
137	0xba597372	-0.0008295096
138	0x3aad2f18	0.0013212888
139	0xb9b21aa1	-0.00033970646
140	0x3a81d5ab	0.0009905597
141	0xb92e7fe5	-0.00016641578
142	0x396f5746	0.00022825328
143	0x3a41613b	0.0007376854
144	0xbb8f99b0	-0.0043823346
145	0xbb3964ee	-0.0028288919
146	0x3b44466c	0.0029949201
147	0xbb766ab1	-0.0037600214
148	0x3b46e330	0.0030347817
149	0x3b45626e	0.0030118483
150	0x3b787e70	0.003791716
151	0x3b5e8cda	0.0033958466
152	0x3a1f7364	0.0006082563
153	0x3a79b36c	0.0009525332
154	0xbb2f6a59	-0.002676627
155	0x3b137c66	0.0022504567
156	0xbb477b15	-0.0030438353
157	0xba9407e6	-0.0011293858
158	0xbb600526	-0.0034182756
159	0xba77aeb2	-0.0009448334
160	0x3a8293a6	0.0009962216
161	0xba317981	-0.00067701197
162	0x3a090472	0.00052267977
163	0x3a264d59	0.0006343923
164	0x3a31242a	0.0006757403
165	0x3a047230	0.00050524157
166	0x37e89591	2.7726202e-05
167	0x3a2b15c2	0.00065263745
168	0xba1fca9d	-0.00060955604
169	0xb860eab2	-5.362434e-05
170	0xb9b8bce8	-0.0003523596
171	0xb8f69232	-0.00011757425
172	0xb9ea3984	-0.0004467481
173	0xb95cafc7	-0.00021046317
174	0xb9d6be8b	-0.00040959226
175	0xba921b43	-0.0011147041
176	0xb981ad0a	-0.00024733722
177	0x3a675ed5	0.0008826082
178	0xbb2a28f4	-0.0025964351
179	0x3a430001	0.000743866
180	0xbb49f25c	-0.0030814623
181	0xbab71538	-0.0013968116
182	0xba491378	-0.00076704426
183	0xba67b2ad	-0.00088385754
184	0x396f50cd	0.00022822917
185	0xb994d1a3	-0.0002838495
186	0x3ade198e	0.0016944872
187	0xb8668946	-5.496412e-05
188	0x3b2baf30	0.002619695
189	0x3a4d1ae6	0.00078241376
190	0x39f50011	0.0004673009
191	0x39803548	0.0002445376
192	0x38035279	3.1309643e-05
193	0xb9d4b3e1	-0.0004056981
194	0x3b23b4d8	0.0024979617
195	0xba2a462e	-0.0006495443
196	0x3b527648	0.0032113958
197	0x3a6a82d5	0.0008945887
198	0x3a9b1a3a	0.0011833378
199	0x39be1aa4	0.00036259473
200	0xb96fe3ff	-0.00022877751
201	0x3a731fda	0.00092744606
202	0xbb07b655	-0.0020708044
203	0x3afbf7bc	0.0019223611
204	0xbb3d6e80	-0.0028904974
205	0xbaa97191	-0.0012927522
206	0xba8561f1	-0.0010176284
207	0xba4cf93f	-0.0007819123
208	0x3a93bf43	0.001127221
209	0x3a6d503d	0.0009052789
210	0x3a2a58c8	0.0006498215
211	0x380566b5	3.1805324e-05
212	0x3b055350	0.0020343848
213	0xb8a2c9fb	-7.762384e-05
214	0x383222d3	4.247094e-05
215	0xba0884e2	-0.00052077894
216	0x393edefd	0.00018202882
217	0x3a7f0ba6	0.0009729214
218	0x39250bd8	0.00015740038
219	0x3a102ff2	0.00055003085
220	0x3886c526	6.42634e-05
221	0xba13a252	-0.00056317926
222	0x3893a129	7.039525e-05
223	0xba24e20f	-0.0006289789
224	0xb91aa4bf	-0.00014747957
225	0x3a5ae328	0.0008349889
226	0xbb0f62c3	-0.0021878935
227	0x3abbbbb5	0.0014322909
228	0xbb147051	-0.0022649954
229	0xba6a9264	-0.00089482055
230	0xbae8d7e3	-0.0017764535
231	0xba8dc916	-0.0010817375
232	0x3ad5cc21	0.0016311446
233	0x3ad75c19	0.0016430645
234	0xbaf74f07	-0.0018868156
235	0x3b243af6	0.0025059558
236	0xbaa5bd48	-0.0012644911
237	0xbab162e9	-0.0013533506
238	0xbb14af04	-0.0022687325
239	0xbaf6b946	-0.0018823526
240	0xb8898d05	-6.558936e-05
241	0x39612a27	0.00021473375
242	0xbb038868	-0.0020070318
243	0x39172bd8	0.00014416815
244	0xbb2f51cc	-0.0026751636
245	0xba25b26a	-0.0006320836
246	0xba0bccd5	-0.00053329516
247	0xb8a3509a	-7.787459e-05
248	0x3a60d6cd	0.00085769297
249	0x3a00d37e	0.00049143273
250	0xbab03e86	-0.0013446368
251	0x3a158a2a	0.0005704487
252	0xbb1031fe	-0.0022002454
253	0xba86dce8	-0.0010289224
254	0xba321068	-0.0006792606
255	0xba2275b5	-0.0006197349

base_model.model.transformer.h.3.attn.c_attn.lora_A.weight f4 [8, 768]
0	0xbcdaf0b5	-0.026726106
1	0x3c791249	0.015202113
2	0x3c0ba4fb	0.008523221
3	0xbcd90340	-0.026490808
4	0x3d078be9	0.033092413
5	0xbcae8f57	-0.021308584
6	0xbb6849af	-0.003544431
7	0xba933b63	-0.0011232909
8	0x3d099d2c	0.033597156
9	0xbcb7c59e	-0.022433098
10	0xbb5f5189	-0.0034075698
11	0xbcf21a68	-0.029553607
12	0xbd0e63a3	-0.03476299
13	0xba8bd373	-0.0010667875
14	0x3ce7dd95	0.0283039
15	0x3d24a20a	0.040193595
16	0xbcc12919	-0.023579167
17	0xbc53800e	-0.012908949
18	0xbd11a41d	-0.0355569
19	0x3cdf5c47	0.027265681
20	0xbcbdd1d0	-0.023171335
21	0x3b59970b	0.00332016
22	0xbb899fbb	-0.0041999496
23	0x3c37b633	0.011212873
24	0xbd26517a	-0.040605046
25	0x3a920d57	0.0011142892
26	0xbc894305	-0.01675559
27	0xbcdfdad3	-0.027326023
28	0xbd26edcb	-0.04075412
29	0x3c0bca4f	0.008532121
30	0x3cca4b25	0.024694035
31	0x3ad4e58d	0.0016242728
32	0x3d08ece1	0.03342903
33	0x3d108347	0.035281446
34	0x3caadfa8	0.0208586
35	0x3bdb96cd	0.0067013265
36	0x3c271765	0.010198449
37	0x3c3c5fc5	0.011497443
38	0xba808dea	-0.0009807919
39	0x3ca958bd	0.020672197
40	0x3c5b0182	0.013367059
41	0xbc6320da	-0.013862813
42	0x3c3c1d98	0.011481665
43	0x3ce8eada	0.028432298
44	0xbb5a3269	-0.0033294207
45	0xbc578b13	-0.0131557165
46	0xb9a29e04	-0.0003101678
47	0x3b99b50f	0.0046907733
48	0xbccb5330	-0.02481994
49	0xbbada536	-0.0052992357
50	0x3c99e55b	0.018786123
51	0x3cb9914a	0.022652287
52	0xbc12c8c9	-0.008959004
53	0xbce40732	-0.027835462
54	0xbc8c0c65	-0.017095754
55	0xbb402471	-0.0029318596
56	0x3ccc531b	0.024941972
57	0x3cbc1498	0.022959039
58	0xbce33629	-0.027735787
59	0xbc7d5ecf	-0.015464499
60	0xbb06802e	-0.0020523178
61	0xbc7e25b4	-0.015511919
62	0xbcb729d0	-0.022358805
63	0x3a8c8034	0.001071936
64	0x3c2a81a2	0.010406883
65	0x3c37a728	0.011209287
66	0xbc750d16	-0.014956733
67	0xbd2ac4bb	-0.041691523
68	0x3cb2ec68	0.021841243
69	0x3bccb375	0.006246979
70	0x3cd9eaf5	0.026601294
71	0xbcadc85f	-0.021213708
72	0xbd092dd9	-0.03349099
73	0x3cd4eb98	0.025991246
74	0x3c3f2882	0.011667373
75	0x3c6afa0b	0.014341841
76	0xbc8fc90b	-0.01755192
77	0x3c7218cd	0.014776421
78	0x3caedfb4	0.021346904
79	0xbc0260d5	-0.007957657
80	0x3be08ad9	0.0068524894
81	0x3d109241	0.03529573
82	0xbccfa5ca	-0.02534761
83	0xbccf3253	-0.025292551
84	0x3c309469	0.010777571
85	0xbbf13f00	-0.0073622465
86	0x3d392a15	0.04520615
87	0xbb2390ce	-0.0024958136
88	0xbca29f46	-0.019851338
89	0x3cb4c064	0.022064395
90	0xbd068cd7	-0.03284916
91	0x3cb4578a	0.022014398
92	0x3c2d142a	0.0105638895
93	0x3c57eb25	0.013178621
94	0x3cecc6d6	0.028903406
95	0x3d21e84b	0.039528172
96	0x3b260f33	0.002533865
97	0x3cca1e96	0.024672788
98	0x3c811f77	0.015762074
99	0x3cb7729b	0.022393515
100	0xbc2b721e	-0.010464219
101	0x3c2aa1cf	0.010414555
102	0x3d29a603	0.041418087
103	0xbc354649	-0.011064121
104	0xbc890d2b	-0.016729912
105	0xbb711125	-0.00367839
106	0xbd2e9340	-0.042620897
107	0xbd27fcf0	-0.041012704
108	0x3d284af4	0.041087106
109	0x3cca5a5e	0.024701294
110	0xbcedb74d	-0.029018069
111	0x3cc18516	0.02362303
112	0x3cb55673	0.022135949
113	0x3aa3db22	0.001250122
114	0x3b2b1a7f	0.0026108322
115	0xbd29e786	-0.041480564
116	0x38d391a3	0.00010088391
117	0x3b0bc6d3	0.0021328225
118	0xbcb46296	-0.022019666
119	0x3b3f8e69	0.002922917
120	0xbce3563a	-0.027751077
121	0xb883dbde	-6.28752e-05
122	0xbd1a121c	-0.037614927
123	0x3aed73a8	0.0018116133
124	0x3c69cc81	0.014269949
125	0xbc44a8bd	-0.012003121
126	0xbad12182	-0.0015955421
127	0xbcd20288	-0.025635973
128	0xba917f55	-0.001110057
129	0xbc972efa	-0.018455017
130	0x3d3617f4	0.044456437
131	0xbcab4849	-0.020908492
132	0x3c1ae2c8	0.009453483
133	0x3d258001	0.040405277
134	0xbbef1b6d	-0.0072969706
135	0x3c0fb712	0.008771675
136	0x3c2b70a1	0.010463865
137	0x3c31b210	0.010845676
138	0x3b468655	0.003029247
139	0xbcd2da01	-0.025738718
140	0x3d17060a	0.036870994
141	0xbce047ff	-0.02737808
142	0x3cc76ab1	0.024342867
143	0xbbb78ab7	-0.005601253
144	0xbb791cd8	-0.0038011577
145	0xbc86d9ed	-0.016461337
146	0xbcb144af	-0.021639196
147	0xbc0da102	-0.008644344
148	0x3bf45ee5	0.0074576014
149	0x3c606919	0.013696932
150	0xbce5e040	-0.028061032
151	0xbcad9682	-0.021189932
152	0x3aa7476e	0.0012762377
153	0xbcc9a7cb	-0.024616143
154	0x3c8fe7e7	0.017566634
155	0xbbf829a4	-0.0075733233
156	0xbd342187	-0.043977287
157	0xbcd8c82c	-0.026462637
158	0x3ce8d004	0.028419502
159	0xbc57d729	-0.013173857
160	0xbc9f27ba	-0.019428123
161	0x3cdaf2d1	0.026727112
162	0xbc66e3e3	-0.014092418
163	0x3c604226	0.013687646
164	0x3c090cdf	0.008364885
165	0xbc06702c	-0.008205455
166	0xbc888b0e	-0.016667869
167	0xbb1f7a72	-0.0024334458
168	0xbc9307a1	-0.017947974
169	0xbbd7bbfb	-0.0065836883
170	0x3c790d53	0.015200931
171	0x399c73b7	0.00029840853
172	0x3c583171	0.0131953815
173	0x3ca293bf	0.019845841
174	0xbd30d1a7	-0.04316869
175	0xbd00cb06	-0.03144362
176	0xbcfae2cc	-0.030625723
177	0xbcec91bf	-0.02887809
178	0xbcb242b0	-0.021760315
179	0x3ca01395	0.019540587
180	0x3c7324b2	0.014840292
181	0x3beb4aea	0.0071805613
182	0xbccfff4c	-0.02539029
183	0xbc6e1f68	-0.014533855
184	0xbbb6e9c6	-0.005582067
185	0xbc98c6ca	-0.018649478
186	0x3bd251a5	0.006418424
187	0x3c41715b	0.011806811
188	0xbd0e8529	-0.03479496
189	0x3d003d4f	0.03130847
190	0x3d0b3f76	0.033996068
191	0xbc606776	-0.013696542
192	0x3c0444ad	0.008073014
193	0x3ba2cdcb	0.00496838
194	0xbd01ad33	-0.031659316
195	0xbbc29871	-0.0059385826
196	0x3cadff60	0.021239936
197	0xbc9e60d4	-0.01933328
198	0x39e0429b	0.00042774234
199	0xbc8edd9d	-0.017439658
200	0x3cb7b13b	0.022423377
201	0x3ab54f64	0.0013832864
202	0x3b8b91a7	0.0042593065
203	0x3d32d626	0.04366126
204	0xbcb1cc3f	-0.021703837
205	0xbc858984	-0.016300924
206	0xbcb026c6	-0.021502864
207	0xbcf92c37	-0.030416591
208	0x3be48dcc	0.0069749113
209	0x3ceb4abf	0.028722165
210	0x3ca9f1dd	0.020745212
211	0x3c9d3915	0.019192258
212	0xbcb39039	-0.021919357
213	0xbcb611cc	-0.022225283
214	0x3c8a3f0f	0.016875772
215	0x3c260d8e	0.010135068
216	0xbc144659	-0.009049975
217	0xbc35bf66	-0.011092996
218	0x3c2ac1a1	0.010422141
219	0x3c8afad4	0.016965307
220	0xbcfee004	-0.031112678
221	0x3d24e8ec	0.040261194
222	0xbcbe5e58	-0.023238346
223	0x3d073878	0.033012837
224	0xbcf320db	-0.029678753
225	0xbadf815b	-0.0017052101
226	0xbc41f552	-0.011838274
227	0x3c8e7742	0.017390851
228	0x3d14c134	0.036317065
229	0xbc00054c	-0.007813763
230	0x3cb1da4d	0.02171054
231	0xbcc4a908	-0.024006382
232	0x3ca747ac	0.020419918
233	0x3c642de6	0.013926959
234	0xbcc8404e	-0.024444725
235	0x3b59190a	0.0033126497
236	0xbd067ebb	-0.032835703
237	0x3c7d4d6e	0.015460355
238	0xbcb3cfdc	-0.021949701
239	0xbbc43d82	-0.0059887776
240	0xbcd1178e	-0.025523927
241	0xbcc88565	-0.02447767
242	0xbb662b3a	-0.003512098
243	0x3d0b00c9	0.033936296
244	0x3bdb5eab	0.006694635
245	0xbd201d52	-0.039090462
246	0x3c9f89e9	0.01947494
247	0xbc7b5eff	-0.015342473
248	0x3abdc4db	0.0014478223
249	0xbbc134c4	-0.0058961827
250	0x3d18a138	0.037263125
251	0xbbb0a94b	-0.005391275
252	0xbc3b5b03	-0.011435273
253	0x3c9bd045	0.01902021
254	0x3d261514	0.040547445
255	0xbd1f038c	-0.038821742
