ml/trained_model/checkpoint-300/adapter_model.safetensors (safetensors, 591352 bytes, 12 tensors)

base_model.model.transformer.h.0.attn.c_attn.lora_A.weight f4 [8, 768]
00000000: d151 c6bc 87d9 fe3c a76a 26bd baac d43c
00000010: 5387 003b c07a 113b 812d 433c 39f4 a5b9
00000020: e521 203b 1a5b af3b a552 05bd bb79 023c
00000030: 405d e53a 8f92 cb3c 16bb ad3c 818f 1cbc
00000040: a610 d83c ea18 bfbc e3ea d2bc 0e48 aebc
00000050: 0e55 86bc c114 2ebd 999a c73c 441a 29bb
00000060: 91ef e93a aa88 b13c 2efb b83c 356e 81bc
00000070: db56 afbb ed42 413b 35ca 09bb c96d a7ba
00000080: 6390 a7bb a67e b6bc 42a6 b8bb 0822 b4bc
00000090: 354c 9e3b 41e1 09bd bc4f 973b 16af 353b
000000a0: 9028 d83b 7aa3 c23b 3987 d5bc a103 b13b
000000b0: 26bc 18bc 60b6 a83b 704d df3c 9e87 a4bc
000000c0: 05bc c1bb 4f88 ed3c f82e 24bd 447b 31bd
000000d0: 6d22 eebc 6835 2a3d c6f3 adbc bc24 dcbc
000000e0: 8ac6 f1bb 6ccc 1fbc 068b a5bc 527f 343d
000000f0: 3101 e9bc 14b1 15bd 0cb4 dabb 10ce 04bd
00000100: 81dd 2b3c 92c7 0f3d 61d2 ee3c 010e 033d
00000110: 1f73 c5bc a86f dcbc e6c5 c73a e2c3 b03c
00000120: 2190 98bc a269 29ba 801b 14bc 9790 333c
00000130: acc0 e63b 5cdc 913b 3cc6 47bc f97e 7a3c
00000140: 94e3 9a3c a02c 4e3c 2b54 dc3c fd14 a73c
00000150: 6f8d 20bc 2f28 ec3c 3efd 333c 6be8 0fbd
00000160: 9b46 32bd a53d c0bc bcf1 efbc 4780 203d
00000170: 0492 813b eca0 893c 635c 233d ec8b 143c
00000180: a997 97bc 03bb 6abc 6647 f63b fb62 01bc
00000190: 98a6 6c3c 40e8 b1bc 8f2d 203c 2f05 983c
000001a0: c00f af3c 650f b3bc 7761 273c b5eb a6bc
000001b0: 68de 1a3d 0e6f 0d3d 62cf b5bc c4e9 ae3c
000001c0: 4e74 063d ab9f 20bd f374 7bbc d856 883c
000001d0: 7f3e 0ebc 1053 003d c60d 85bc 9e90 1abc
000001e0: 9b3e 113d 5390 ea3c 3a2e d23c cdd2 62bb
000001f0: 10c3 eebb 9333 90b9 7091 bb3c c457 533c
00000200: 1d0f d53c 968a 983b b371 18bd 51af 9bbc
00000210: 512a a9bc 081d 2b3d 23fe fcbc 8668 1c3d
00000220: 48eb 17bd f8fe 22bc 71f9 303d add3 ba3c
00000230: 61ec fc3b 512b 1c3d 01f9 21bb 60f6 86bc
00000240: 86d7 10bd 1d89 cfbc 9219 8abc 770e 3b3c
00000250: 8f9b 5ebc 168c 9bbc bcdd 36bd cd17 193b
00000260: b60f ed3b ce69 31bd 464a f23b 4324 24bd
00000270: 2efa a3bb 75c6 88bc f47c b4bc 0bf5 80bc
00000280: 325d 77bb b82d 2f3d 4c9e 00bd 83ae 333d
00000290: eb13 073d cdb5 dbbc bc05 dcbc f57e ff3b
000002a0: 3c0e 263d 50e9 103d 96e4 12bd ada3 1e3d
000002b0: b077 13bc 71ef 37ba 38fd 01bc b10a bb3b
000002c0: 8cc4 dbbb 7314 a13c 2a77 cf3b d630 82bb
000002d0: 9ebc b33b aa34 3ebc beff 24bb e852 f4bc
000002e0: 39fa d83a a626 f8bc 7eb0 9b3c f197 14bd
000002f0: 5655 81bb 1ece 8d3c 2089 093d f769 853c
00000300: 0e97 353d f184 11bd a1ec 9e3c 30a1 d63c
00000310: 4cc5 babc 5823 b1bc b565 22bc fc96 9fbc
00000320: 7c5c 96bc 605a 2dbd 28b2 1a3d a025 b03c
00000330: 115e 813b 9b31 483b 4e76 02bd 4f4a 0fbd
00000340: 8b38 27bd 6705 a53c e76f 97bc 0478 bb3c
00000350: 6d7e dc3c 4ca6 2abd f857 9cbb 2064 b7b9
00000360: fe60 37bd bcef 97bc d160 9a3b ad7c 183d
00000370: a637 3f3c 3df2 87bc 63cc d33b a01a da3c
00000380: affa 6c3a ecee afbc fa7d 893c 4286 1c3d
00000390: 43d6 15bd a8e4 6e3b 0939 5d3b 89e9 883c
000003a0: 66a0 863c 855d 83bc 849f 85bc 9489 bbbc
000003b0: 1b48 00bd a420 96bc aa16 1a3d c0ae 9abb
000003c0: 1a7e b43c ef84 76bc 5858 a8bc a06c 7ebb
000003d0: 58e0 633c a5f6 a9bb c685 f6ba b0cb a73c
000003e0: 53a7 c9bc 203f 2e3d 42fc acbc e9d8 c63c
000003f0: 2726 cf3c 1bbe c2bc c4a0 bebb 36b4 cf3c
-0.024208935 0.031109584 -0.040629055 0.025961269 0.001961191 0.002219841 0.011912704 -0.00031653212
0.0024434265 0.0053514363 -0.03254952 0.007963593 0.0017499104 0.024850158 0.021207374 -0.009555698
0.026375126 -0.02332731 -0.025746768 -0.021274593 -0.01639798 -0.04250026 0.02436571 -0.002580301
0.0017847886 0.021671612 0.02258071 -0.015799621 -0.00535093 0.0029489354 -0.0021025066 -0.0012773807
-0.005113648 -0.022277188 -0.005635054 -0.021988884 0.004830862 -0.033662084 0.0046176594 0.0027722768
0.0065966323 0.005939898 -0.026065456 0.005402044 -0.009322202 0.005148694 0.027258605 -0.020084199
-0.0059123063 0.028995661 -0.040083855 -0.043330446 -0.02906915 0.04155484 -0.021234404 -0.026872985
-0.007378404 -0.009753328 -0.020207893 0.044066735 -0.02844295 -0.036545828 -0.0066742953 -0.03242308
0.010489822 0.035102434 0.02915305 0.031995777 -0.024102746 -0.02690871 0.0015241473 0.02157778
-0.018623414 -0.0006462579 -0.00903976 0.010959766 0.0070420112 0.0044513177 -0.012193259 0.015289062
0.018907346 0.012583882 0.026895603 0.02039575 -0.009799345 0.028827755 0.010985671 -0.03513376
-0.043524366 -0.023466894 -0.029290073 0.039184835 0.003954174 0.016800366 0.03988303 0.009066563
-0.018504934 -0.014326814 0.0075158356 -0.007897134 0.014444016 -0.02171719 0.009776487 0.01855716
0.021369815 -0.021857927 0.0102161085 -0.020376066 0.03780976 0.034529738 -0.022193614 0.021351703
0.03282576 -0.03921477 -0.015347707 0.016642973 -0.008681892 0.031329215 -0.01624192 -0.0094338935
0.035460096 0.028633272 0.025656808 -0.003461051 -0.007286437 -0.00027504246 0.022896498 0.012899343
0.026008183 0.0046551926 -0.037217807 -0.019004496 -0.02065006 0.041775733 -0.0308829 0.03818562
-0.037089616 -0.009948485 0.043206636 0.022806013 0.0077186082 0.038127247 -0.0024715068 -0.016474903
-0.03536179 -0.025333935 -0.016857896 0.011417023 -0.013586893 -0.018987697 -0.044645056 0.0023360134
0.007234539 -0.043313794 0.007394108 -0.040073644 -0.005004189 -0.016696194 -0.022032239 -0.015741846
-0.0037744758 0.04276821 -0.031400964 0.0438676 0.03297798 -0.026820088 -0.026858203 0.007797117
0.04054092 0.035378754 -0.035862528 0.038730312 -0.009000704 -0.00070165755 -0.007933907 0.0057080616
-0.00670678 0.019663071 0.006331344 -0.003973107 0.0054851314 -0.011609236 -0.0025176848 -0.029824689
0.0016554064 -0.030291867 0.019005056 -0.036277715 -0.0039469404 0.017310198 0.03357804 0.01628588
0.04433351 -0.035527173 0.019399943 0.026199907 -0.022799157 -0.021623299 -0.009911944 -0.019481175
-0.018354647 -0.042322516 0.03776756 0.021502316 0.003947981 0.0030547145 -0.031851105 -0.034982976
-0.040825408 0.020144178 -0.018485976 0.022884376 0.026915753 -0.0416625 -0.004771229 -0.0003497908
-0.044770233 -0.018546931 0.0047112484 0.037228275 0.011670982 -0.016595 0.006463574 0.026624024
0.00090400403 -0.021476232 0.016783703 0.038213976 -0.03658129 0.0036452208 0.003375592 0.01671292
0.016433906 -0.016035805 -0.016311415 -0.02289275 -0.031318765 -0.018326111 0.03761927 -0.004720539
0.022032786 -0.015046342 -0.020549938 -0.003882207 0.013908468 -0.005186873 -0.0018808178 0.020482868
-0.02461592 0.04254067 -0.02111638 0.024273353 0.025286747 -0.02377229 -0.0058175046 0.025354486

base_model.model.transformer.h.0.attn.c_attn.lora_B.weight f4 [2304, 8]
00000000: dc19 623a b25c a1bb 7cb9 cbbb 65e6 193b
00000010: 8022 b5bb f24c e939 f0c5 76bb 9fbc 9dba
00000020: 0fb3 dbba ab27 9dbb db50 9ebb c922 333b
00000030: 12f1 d5bb 3c2c 69bb ac29 a7bb 1899 79ba
00000040: 12c7 e7ba 3cdf a33b 78bf d23b d948 3dbb
00000050: 453f 983b 47f7 0abb fad6 6b3b f731 be3a
00000060: 5d7f a8ba ffe5 8b3b 1e13 a23b baff 0bbb
00000070: 9a28 4f3b 6b48 27bb 6afe 603b 1de4 55b8
00000080: 7874 263a 78ff d63a 89c3 5d3a cc76 933a
00000090: a293 6f3b 9f3b f13a 2c5f 1f3b 33d4 c1b9
000000a0: 216f 953a e00f 43ba 20c4 0cba fcc7 723a
000000b0: 6f17 0c3b db9e 553b 816c 95ba 2193 293b
000000c0: 882e 65ba 1d04 903b 0718 9b3b 8b10 963a
000000d0: def5 c43b 27f8 323b 2b9c 8bba fd99 933b
000000e0: 7583 663a 9178 9fbb 9815 bdbb d013 013b
000000f0: 26ad d6bb faf4 d7b8 77a0 55bb f700 42bb
00000100: 7270 493a 1316 33bb 0261 7bbb cdf9 5d3b
00000110: 4036 77bb 38f5 68bb ec2f 85b9 17c0 7ebb
00000120: ef20 9c3a 59fb 49bb c97c 7ebb b0eb 9bb8
00000130: 9db5 e9ba 4a52 723b 8174 e9ba b11b 823a
00000140: fb8e 033a 3b9d 33bb aa86 6ebb bc6d 273b
00000150: bcc5 7bba 647f 1b3b 7da3 d8ba dc7d 83ba
00000160: 80ea edba 858e 803b 13aa b03b f94e 09bb
00000170: b651 cb3a 5d6e d3ba 1d65 15ba 2fd3 273b
00000180: a158 87b9 c006 c83b fd8b d73b 758e 22bb
00000190: fafe e73b 0cbe 103a ed46 993b d61b 593a
000001a0: 8974 9c3a ec53 743a 9cd0 143b c491 04bb
000001b0: 2078 6d3b 4f71 2f3b 553d 613a 81ad 253b
000001c0: 378f 013a db3d d33b 2568 ea3b 62c5 69bb
000001d0: 3f0b f83b 1eb6 823a 837e aa3b 9be2 b83a
000001e0: a43c 2139 3447 b43b 1305 d13b e7b0 cdba
000001f0: 21bc e03b 6c59 063a 4957 5a3b d343 f63a
00000200: 2d4a 533a 0fe3 c13b f32b dd3b 045a f1ba
00000210: 3cd3 f63b a304 273a 5953 8b3b 760f e53a
00000220: a194 0bb8 9d85 bebb 0ecf e0bb 13ed 8d3b
00000230: a967 cdbb c6b1 26ba 3647 c0bb 94de 00ba
00000240: 9944 e53a 305e 5b3b 1816 643b 3121 64b8
00000250: 152e bd3b f31a 693b e0b1 813b 1230 02ba
00000260: 00ba 9639 330c b139 ac8c 36b8 2326 8a3a
00000270: 09f4 af3a b197 1dba b088 353b 7993 0abb
00000280: 4789 90b9 611c 9dbb 6f63 d7bb 7b75 6d3b
00000290: 35da b7bb d4ab edba 1631 7abb 047a 62bb
000002a0: 5e69 a3ba 62de a5bb 82f2 c1bb 6cda 753a
000002b0: ab91 d0bb 2085 9cb9 2466 85bb da91 4b38
000002c0: c22d 86b9 986c bf3b 4a93 df3b d879 44bb
000002d0: d001 e83b 00f5 313a 7dd2 973b a873 373b
000002e0: d550 a7b9 0e9d 38bb aa7b 9cbb 6d96 db3a
000002f0: 162a a3bb a8be 52bb 7835 54bb 4a9a edba
00000300: 8bac ce3a 254e 753b 15e7 883b 02bd 36bb
00000310: ebe8 6e3b 55b5 5839 2033 823b 5078 62ba
00000320: b149 70ba 8ec5 853b 7d32 993b 93c2 5fbb
00000330: 9742 033b 846a 95ba 162e fb3a c102 d33a
00000340: 9885 ffb9 eb2d c83b ea4c e83b 8287 79bb
00000350: 2952 d03b c3d5 9e39 9a5e 823b 3925 e93a
00000360: a932 9bb9 a762 2a3b ce77 2c3b 8d7f c93a
00000370: 6ff1 883b 4237 1dbb ec09 7a3b 9b25 15bb
00000380: aacb 3f3b 7776 15bb 0c34 76bb b20f 9b3a
00000390: b322 863a c167 3d3b cd55 4d3b 26f0 62bb
000003a0: ab12 e93a 1ab1 553b c1fd 873b 03fc d3ba
000003b0: 10b6 8e3b 094d 743b 4889 d53a 6818 5c3a
000003c0: 011e 883a 147a b1bb 1410 d7bb 73d0 973a
000003d0: 9d68 d2bb 03c5 9e3a b538 70bb a83a 5eba
000003e0: ee73 3f3a 61ea d2ba 8ae2 2cbb 6301 c43a
000003f0: df7a 4f3b 5f8f 053b d601 f83a c5a1 f338
0.0008625069 -0.00492438 -0.00621718 0.0023483273 -0.0055277944 0.00044498552 -0.00376546 -0.0012034363
-0.0016761738 -0.0047959886 -0.004831416 0.0027333966 -0.006528982 -0.0035579344 -0.005101403 -0.0009521409
-0.0017683229 0.005000977 0.0064315163 -0.0028882532 0.004646214 -0.0021204518 0.003598629 0.001451074
-0.001285534 0.004269361 0.0049461266 -0.0021362142 0.0031609894 -0.0025525342 0.003433133 -5.0995604e-05
0.00063497527 0.001640304 0.0008459618 0.0011250614 0.0036556502 0.0018404609 0.0024318201 -0.0003696993
0.0011400917 -0.0007441025 -0.0005369801 0.00092613674 0.0021376272 0.0032595906 -0.0011400135 0.002587505
-0.00087425904 0.0043950216 0.004733089 0.0011449022 0.006010755 0.0027308555 -0.00106514 0.004504441
0.00087933923 -0.0048666676 -0.0057703964 0.0019695647 -0.0065514026 -0.00010297629 -0.0032596865 -0.0029602626
0.0007684297 -0.002732639 -0.0038357382 0.0033870817 -0.0037721545 -0.0035546552 -0.0002540344 -0.0038871819
0.001191167 -0.003081998 -0.0038831702 -7.434876e-05 -0.0017830614 0.0036975318 -0.001781121 0.0009926466
0.0005018559 -0.002740695 -0.0036396184 0.0025547585 -0.0009604355 0.0023727054 -0.0016528215 -0.0010032016
-0.0018151551 0.0039232397 0.005391368 -0.0020951612 0.0015512023 -0.0016130913 -0.0005698966 0.0025608053
-0.0002581524 0.0061043203 0.006577967 -0.002480415 0.007079956 0.0005521483 0.0046776445 0.0008282041
0.0011936586 0.00093203667 0.0022707349 -0.0020228485 0.003623493 0.0026770418 0.0008592208 0.0025280418
0.00049423 0.0064465827 0.0071535283 -0.0035670628 0.0075697 0.0009972488 0.0052030697 0.001410562
0.00015376747 0.005501652 0.0063787787 -0.001569298 0.006858364 0.0005125019 0.0033316186 0.0018788524
0.0008060064 0.00591696 0.006749624 -0.0018413668 0.0075325053 0.00063712354 0.004251879 0.0017475921
-3.3278604e-05 -0.005814268 -0.0068606203 0.00433124 -0.006268461 -0.0006358888 -0.005867864 -0.0004915979
0.0017491757 0.0033472888 0.0034803208 -5.4390348e-05 0.0057733157 0.0035569042 0.003957972 -0.00049662695
0.0002874881 0.0003376916 -4.3523192e-05 0.001053993 0.0013424169 -0.00060116785 0.002769988 -0.002114503
-0.000275681 -0.004794643 -0.0065731327 0.0036233354 -0.005610729 -0.0018132874 -0.003817623 -0.003455759
-0.0012467315 -0.0050619105 -0.0059188018 0.00093785557 -0.006365021 -0.00029853825 -0.004071014 4.8534806e-05
-0.00025592564 0.005841803 0.006822978 -0.002997985 0.007080294 0.0006788522 0.0046332465 0.002799252
-0.00031912947 -0.0028169784 -0.004775484 0.0016753204 -0.0049793823 -0.0032157097 -0.0032380503 -0.0018127647
0.0015767975 0.003743061 0.0041779377 -0.0027883654 0.0036454748 0.00020666917 0.0039733797 -0.0008639144
-0.00091662543 0.0040823882 0.004675208 -0.0034143075 0.0020028704 -0.0011399542 0.0019163515 0.0016098843
-0.00048736925 0.0061089895 0.007089247 -0.0038075154 0.0063574505 0.00030295373 0.0039785625 0.0017787582
-0.0002960165 0.0025998743 0.0026316526 0.0015373096 0.0041791718 -0.0023989235 0.0038152887 -0.002275801
0.002926568 -0.0022806206 -0.0037567643 0.0011830239 0.001023373 0.0028900953 0.0031331659 -0.0034628003
0.0017782053 0.0032606781 0.004150123 -0.0016173128 0.0043551996 0.0037277362 0.0016291523 0.0008395971
0.0010384918 -0.005416164 -0.006563196 0.0011582508 -0.0064211623 0.0012113157 -0.0036654894 -0.00084773684
0.00073033466 -0.0016091579 -0.0026380145 0.0014954027 0.003165893 0.0020379645 0.0018921446 0.00011617275

base_model.model.transformer.h.1.attn.c_attn.lora_A.weight f4 [8, 768]
00000000: 44cf afbc 9438 af3c 4483 fc3b 6600 97bb
00000010: 2cd6 6f3c fa05 a53c cfce 8abc d331 d0b7
00000020: 6834 c1bc 30ba 28bd b65b c8bc dcb5 ae3b
00000030: d976 f2bc 4070 273d c8dc edbb e8f0 db3c
00000040: f717 cf3b cc0c 4e3c 8217 bd3b 4956 bfbc
00000050: 22c6 47bb ab1c 0bbd 8ce4 c7bc 4b7b 233d
00000060: c6a2 88bc 0c26 c7bc b26f 993c c952 e8b9
00000070: b10d a83c a4de 393d cd75 323c c5b4 ee3c
00000080: f70d e73b e838 b93c 24bc 4fbc 38f6 ecbb
00000090: 1766 07ba 430b c4bc 1bb5 94bb dfb5 223c
000000a0: 096b 43bc 1c93 033d e610 f7bb 35c3 e63b
000000b0: 0f89 a7bc 63e2 983c c3d4 40bc be3b 123d
000000c0: 2b8a 16bd f266 b13c a43d 083d bf14 28bd
000000d0: c450 babc e8cd 943a 8b1f a0bb f870 b53c
000000e0: 1209 29bc 9c91 03bc 8e39 08bd 5796 aa3b
000000f0: 4529 0f39 248f c03c 615b 6b3b d08f 23bd
00000100: 3d4f 1bbd 6750 9e3c 0498 e43c 1e68 a1bc
00000110: be8c ebbc 661f 98bc 2c01 c23c d8f3 4ebc
00000120: c2d5 22bb 9b41 c13c 9a1c 253c e78a d73c
00000130: 5969 01bc 967f fa3c 9c7d 0abd a70a 813c
00000140: 9ea8 4dbc 04b4 d23c 2383 813c 5469 55bc
00000150: c2cd c23b 77ea f83c 1e39 2ebd c60a 76bc
00000160: 929a 213d 8395 6bbb 86cc 38bc 8ea0 ee3b
00000170: 6196 00bb c8a8 e43c 6f19 c0bc 3096 333c
00000180: c8bf 493b f3ac b5bb 3fe0 50bc 4b1c 9e3c
00000190: 69af 0cbc ed53 7bbc 2d8b 56bc 9ac9 2d3d
000001a0: b1c8 fb3c af2d 983c 2143 18bb 7aed 383d
000001b0: c100 d43c a509 233d ec61 2d3d d929 6bbc
000001c0: a92e dcbc fe92 bbbc 909f b43b f14b 0b3d
000001d0: 4987 97bc 6aa5 81bc d01f b53c 6555 9f3c
000001e0: 20cf 303d 107a 273c a01b 093c 7331 d0ba
000001f0: 5d45 283d bc36 27bc 1782 553b 90ba 7e3c
00000200: 1e44 073c 9571 ba3a f4f6 c5bc 29f3 883c
00000210: 4faf 953c 782a b73c 16d0 313c 436e a3bb
00000220: 9a9d 423c 8df5 b03c ab56 96bc 9233 3f3c
00000230: 6e9b ac3c 5790 1dbc e90a a7bc 07e6 633c
00000240: 76b7 d03b ea34 21bd ae55 b9ba 00b0 8bbc
00000250: 921d d33c 632e 2cbd 08c6 83bb e221 0a3b
00000260: e8a1 b5bc cf08 03bd 06f4 243d b6fd e03c
00000270: 313b 9c3c 1c36 243b ea3d 77bc 8f6e 043c
00000280: 7076 e9b9 3a59 ac3c 75a7 46bc b7fe 00bd
00000290: 13e1 15bd 7e4e 82bc 7719 ab3c 86ba 983c
000002a0: 7e44 07bc 9e91 073d 1275 76bb 8b03 033d
000002b0: 923f 1c3d 8c4d d33c 6c74 b8ba a8a2 c63c
000002c0: b277 48bc 3974 c53c 264d a03b b2d8 9fbb
000002d0: 7b9b e43b 81bd d0bb 24a4 483c 9691 89bc
000002e0: 3028 e13b 5e6a 05bd 9f94 803c af0d abbb
000002f0: 58c9 e73c b4c4 eebb dc2a 0b3b 842d 05bd
00000300: b61e 8a3c 1604 1e3c 19d8 073d f510 58bb
00000310: 056e 86bb 09e0 3d3c 597c 193d a6e5 e83c
00000320: 196c 073d dade 203c d781 733c c739 6b3c
00000330: 7bc2 b7bc d1b7 2a3c 4837 08bd 467d 9c3c
00000340: c115 df3c f250 9f3b ed6e 96bc 12f0 113d
00000350: 53c9 de3c 44d7 ef3c 1dc8 95bc 466d a1bc
00000360: 6a6d 0dbd fac7 983c 7ca5 61bc 15fd 533c
00000370: 06c4 133c 9b15 b73c ccea e93c a0b1 813c
00000380: a846 6cbc 2593 d0bc b552 e6bb 854c f03c
00000390: cbcd 11bd 8d2a dcbb c3fc a83c 9c8d 1a3c
000003a0: 8ea3 bdbc 359a 76b8 f583 163b a228 13bd
000003b0: edc2 bebc 2b5e 293d 5f9a da3a d12c cebc
000003c0: 079e ebbc 5b50 e3bc f04d 053c 2ebb 90bc
000003d0: 68a9 213a 9cb3 5c3c 7897 4f3c 55d7 663c
000003e0: 832d 19bd cb64 223c 3133 113d 2dea 87bc
000003f0: 63ee 09bd 8f15 6d3c 29e7 ef3b 58b7 b6b9
-0.021461137 0.021389283 0.007706078 -0.004608202 0.014638465 0.020144451 -0.016944317 -2.4818733e-05
-0.02358456 -0.041193187 -0.024457794 0.005331738 -0.029597687 0.040878534 -0.007258985 0.026848271
0.0063199955 0.012576293 0.0057706246 -0.023356574 -0.0030483087 -0.033962887 -0.024400972 0.039912503
-0.016679179 -0.024310134 0.018730018 -0.00044312168 0.020514341 0.045378342 0.010892344 0.029138932
0.0070512253 0.022610143 -0.012679134 -0.0072315 -0.0005165054 -0.023931151 -0.004538191 0.009931057
-0.011927375 0.032122716 -0.0075398562 0.0070423135 -0.020451097 0.018662637 -0.011769476 0.035701506
-0.03675286 0.021655533 0.03326191 -0.04103541 -0.02274359 0.0011352869 -0.0048865727 0.022148594
-0.010317104 -0.008030321 -0.033258013 0.00520591 0.00013652917 0.023505755 0.003591262 -0.039932072
-0.037917364 0.019325448 0.027904518 -0.019702967 -0.028753635 -0.01856966 0.0236822 -0.012631379
-0.0024846648 0.023590853 0.01007762 0.026311351 -0.007898652 0.030578416 -0.033811197 0.01575215
-0.0125524085 0.025720604 0.015809601 -0.0130256 0.0059449384 0.030385239 -0.04253494 -0.015017217
0.03945405 -0.003594727 -0.011279231 0.007282323 -0.0019620883 0.027912512 -0.023449628 0.0109611
0.0030784477 -0.005544299 -0.012748777 0.0193006 -0.008586743 -0.015339834 -0.0130947055 0.04242859
0.030735346 0.018576471 -0.0023233371 0.04514835 0.025879266 0.03980412 0.042329714 -0.014353239
-0.026877718 -0.02289724 0.0055121854 0.03400797 -0.018497126 -0.015825946 0.022109896 0.019449899
0.04316628 0.010221973 0.008368403 -0.0015883878 0.041081775 -0.010205921 0.003257876 0.01554741
0.0082559865 0.0014224524 -0.024165608 0.01671751 0.01827207 0.022359118 0.010852834 -0.0049875095
0.011878395 0.021601463 -0.018351873 0.01167001 0.021070208 -0.009616933 -0.020390945 0.013909823
0.0063695265 -0.039357103 -0.0014139914 -0.017051697 0.025770936 -0.042036425 -0.00402141 0.0021077325
-0.02217193 -0.031990822 0.04027178 0.027464729 0.019071193 0.0025056666 -0.015090445 0.008083
-0.00044529466 0.02103864 -0.012124886 -0.031492915 -0.0365916 -0.015906569 0.020886166 0.018643629
-0.008256076 0.033097856 -0.00376064 0.0319858 0.038146563 0.025793813 -0.0014072782 0.024247482
-0.012235569 0.02410327 0.0048920093 -0.004878127 0.0069765425 -0.006370247 0.012246165 -0.016793054
0.006871246 -0.032572143 0.015695868 -0.005220137 0.02829425 -0.0072866324 0.0021235263 -0.03251411
0.016860347 0.009644529 0.03316507 -0.0032969092 -0.004102471 0.011589059 0.037472103 0.028429817
0.033062074 0.009818757 0.014862499 0.014357037 -0.022431603 0.010419802 -0.033255845 0.019102704
0.027232053 0.0048619444 -0.01836344 0.03562934 0.027195608 0.029277451 -0.018283898 -0.019705426
-0.034528174 0.018650044 -0.013772365 0.012938757 0.009018904 0.02234917 0.028554343 0.015831769
-0.014421143 -0.025460789 -0.0070289024 0.029333362 -0.03559665 -0.0067189396 0.020628339 0.009433176
-0.023149278 -5.8794587e-05 0.0022966836 -0.035927422 -0.023286307 0.04134957 0.0016678086 -0.025167855
-0.028761877 -0.027748277 0.0081362575 -0.01766738 0.0006166906 0.013470557 0.01267039 0.014089425
-0.03739692 0.009911726 0.03544921 -0.016591156 -0.03367461 0.014470472 0.0073212576 -0.00034850347

base_model.model.transformer.h.1.attn.c_attn.lora_B.weight f4 [2304, 8]
00000000: ee89 edba 5442 563b 0d4a 243b a6f7 9fba
00000010: 8312 ddba d58a b5ba 54e7 c6ba fdb7 203b
00000020: b013 193b 245a 72bb 441b 46bb e073 153b
00000030: 61f4 463b 32d9 83b9 dd7b ed3a 9109 1dba
00000040: 48c2 84ba 33e7 503a 8f55 a53a 9143 3eba
00000050: cdf7 b6ba 6acc d139 3ecc cdb6 e273 ffb9
00000060: e0fa 5b3b 5b3d 9dbb e012 93bb d1fa 073b
00000070: e829 993b 1ebe e739 707c 0d3b baae b6b9
00000080: 606c 34bb 2a67 e43a bc8c 243b 4c48 12bb
00000090: 3e5a 68bb 93d0 07bb 0102 f0ba ea04 ddba
000000a0: 3bcb 923b 5284 dcbb 097a bfbb db13 ef3a
000000b0: 32c3 da3b 6869 633b 37ab dd3a 312c 0039
000000c0: ea7d 39bb 005d 643b 47bd 433b c541 33bb
000000d0: 9461 45bb f6c2 1638 6c1a 7fba bb15 14ba
000000e0: 73ce fa3a c953 05bb 1928 f7ba 5900 9d3a
000000f0: 6404 363b fbea 9cb9 1b6a 66b9 ee28 b33a
00000100: adc8 153b 99d2 67bb 470f 49bb f71c 073b
00000110: 2f2a 503b 1fa2 7aba 9bcf 8539 a284 af3a
00000120: 086f 33bb 2154 303b 13ca 493b 6e03 32bb
00000130: 6421 5dbb ec13 c8ba 58ba 02ba e771 b6ba
00000140: b21b 453b d55e 96bb a06e 70bb f009 d439
00000150: c6f0 843b 8764 5f3b 5104 a13a b170 9eba
00000160: d9e1 27ba c1c7 42ba 335f d7b8 ceaf 8f39
00000170: c07c 303a 5f97 49bb c0be 97ba e775 003b
00000180: 3192 553b aada 97bb 54ed 80bb 0e4c f23a
00000190: 7f1a 8d3b ef57 a3b9 c751 9739 607c cd3a
000001a0: 3273 b1ba c6d4 e7b9 ee85 5c3a e04f 14ba
000001b0: 8a0b 1db7 8f99 5abb da49 d1ba 43b6 133b
000001c0: 56ee 84ba 4599 633b 6b61 1d3b ada7 35ba
000001d0: fbef 25bb cc1e c03a b357 1938 ae37 82b9
000001e0: 672a 443a 3a30 5fbb 7699 57bb d897 a5ba
000001f0: 7d3b 863b 33dd 36ba ef42 95ba 9946 583a
00000200: 9b5c 8dbb fd72 723b 430a 843b fc77 67bb
00000210: 2ed0 84bb 6563 8abb 46da 34bb 9f1f 1a3b
00000220: 21ab 1b3b 37fc bb3a ebaf 16b9 661c 4d3b
00000230: 8b1d daba 2096 823b 1032 123b 8434 3ebb
00000240: f262 263a 0e5d 1bbb 3bf1 23bb c77a 45ba
00000250: 1c5a 043b 628c cd3a a94b e73a ff80 c2ba
00000260: dc6d 8ebb 695c bf3b c2b4 c43b b8e0 baba
00000270: 33e1 c1bb fc0b 9fbb faa4 14bb db30 283b
00000280: 1a91 cebb c059 e73b e866 fc3b 4e91 95bb
00000290: 2a98 fdbb f7f4 c1bb 4e3e 82bb 2fe5 763b
000002a0: 3d51 563b c21a 8abb e2a3 89bb e341 ea3a
000002b0: 7b9c 863b 1abb 0f3a aa34 f03a 4a9c c4ba
000002c0: 8465 6fbb 2433 933b 819e 973b 75a8 61bb
000002d0: 4b8f 9ebb 7715 62bb aab7 4cbb 9c76 303b
000002e0: 84f0 deba b23f 233b 0e76 053b f39e 15bb
000002f0: 17b1 0fbb 5e01 2a3a 0149 93ba 73c6 eeb9
00000300: c886 783b 7edc 92bb 75e1 9bbb 564e 3f3b
00000310: a14d 913b 59ea 163b 0df2 5d3b 836a c5ba
00000320: 77ae 023a f05e 82b9 3431 ceb9 5e33 b93a
00000330: 83e8 ef39 879c c9ba 48cd 2639 ad4c 923a
00000340: c7da 87bb 1e2e 803b 5bf4 7b3b ac79 58bb
00000350: 813d 8bbb 2e2e 7fbb e0d1 07bb 0d4b c43a
00000360: e16b 96bb b20a 9e3b 9235 993b 777f 0dbb
00000370: 8245 a1bb 7841 adbb 973a 10bb 747a 6d3b
00000380: 6abd 0fb9 fa63 e5ba 1551 e7ba c939 edba
00000390: 509d 5f3b da9d 37ba 8e6e 36bb 3912 363b
000003a0: 7295 a3bb 4b35 e03b e232 ca3b 2a7c 48bb
000003b0: 5f79 dcbb d9a6 7abb b4e2 c2ba 9b15 16ba
000003c0: 6b06 853a 52d3 02bb 9142 dbba d3f1 1139
000003d0: 55ca 1939 da27 363b bf1c a63a 0a23 5ebb
000003e0: f344 c3b8 4cc7 99ba eb25 7bba 6c02 b4b5
000003f0: cf03 5b3b 288b ebba 4125 95ba 80c8 253b
-0.0018122771 0.0032693343 0.0025068552 -0.0012204542 -0.0016866479 -0.0013850579 -0.0015175142 0.0024523728
0.0023357682 -0.0036979998 -0.0030228654 0.0022804663 0.0030358064 -0.0002514809 0.0018118579 -0.00059905
-0.0010128701 0.00079690217 0.0012614 -0.0007257993 -0.0013959348 0.00040015887 -6.133253e-06 -0.0004872373
0.0033566281 -0.004798574 -0.004488334 0.0020748863 0.004674185 0.00044201402 0.0021589063 -0.00034843927
-0.0027530417 0.0017425765 0.0025108298 -0.0022320924 -0.003545418 -0.0020723685 -0.0018311144 -0.0016862426
0.0044797934 -0.006729641 -0.005843405 0.001824017 0.006676101 0.0034700278 0.0016911988 0.00012223494
-0.002830381 0.0034845471 0.0029867457 -0.0027352434 -0.0030117976 3.594436e-05 -0.0009731415 -0.000564899
0.0019135013 -0.002034413 -0.0018856555 0.0011978253 0.0027773613 -0.00029929713 -0.00021974037 0.0013668814
0.0022855208 -0.0035373329 -0.0030679272 0.002061663 0.0031763425 -0.0009560901 0.00025522415 0.0013390968
-0.0027379412 0.0026905613 0.0030790612 -0.0027162689 -0.0033741826 -0.0015264726 -0.0004986874 -0.0013919444
0.0030076322 -0.0045889416 -0.0036687031 0.00040443195 0.0040570227 0.0034087019 0.0012284612 -0.0012088028
-0.00064041984 -0.00074302783 -0.00010269731 0.0002740607 0.00067324564 -0.003076039 -0.0011577234 0.0019601525
0.0032588358 -0.004634221 -0.0039345417 0.0018485801 0.004306137 -0.00031155298 0.00028861893 0.0015677325
-0.0013538359 -0.00044218282 0.0008412291 -0.0005657654 -9.360616e-06 -0.0033355688 -0.0015967444 0.0022539056
-0.001014183 0.0034728807 0.0024014364 -0.00069295877 -0.0025320041 0.0014657616 3.655972e-05 -0.00024837017
0.0007483125 -0.0034055845 -0.0032897866 -0.0012633754 0.004096447 -0.000697571 -0.0011387746 0.0008250266
-0.004314018 0.0036994808 0.0040295436 -0.003531932 -0.0040531373 -0.0042232745 -0.0027595921 0.0023517383
0.0023753124 0.0014342134 -0.0001437065 0.0031297444 -0.0016640885 0.0039851815 0.0022307672 -0.0029023
0.00063471415 -0.0023706588 -0.002501561 -0.0007533249 0.002019531 0.0015682096 0.001764645 -0.0014839469
-0.0043465924 0.0058398736 0.0060029933 -0.0014257645 -0.0059167384 -0.0048537236 -0.0022681342 0.0025663886
-0.0063039185 0.0070602596 0.007702697 -0.004564441 -0.0077390866 -0.0059190947 -0.0039747125 0.0037673225
0.003270223 -0.0042146156 -0.0042004446 0.0017872419 0.0041080094 0.00054828974 0.0018326242 -0.0015000191
-0.0036529014 0.0044921804 0.0046270494 -0.0034432684 -0.004838859 -0.0034497657 -0.0031237402 0.0026926165
-0.0017008935 0.0024909792 0.0020364556 -0.0022830337 -0.0021925622 0.0006485189 -0.0011236967 -0.00045542754
0.0037922133 -0.004481851 -0.004757101 0.002919098 0.004434303 0.0023027866 0.0033866197 -0.001506165
0.0004985104 -0.00024866266 -0.0003932804 0.0014129688 0.00045758867 -0.0015381732 0.00015907467 0.0011161767
-0.0041459533 0.0039117476 0.0038445208 -0.0033031506 -0.004249275 -0.0038937437 -0.002072446 0.001497598
-0.004590497 0.0048230523 0.0046755755 -0.0021590868 -0.004921616 -0.0052873455 -0.0022007579 0.0036236318
-0.00013708105 -0.0017501109 -0.0017648066 -0.0018098886 0.0034120865 -0.0007004418 -0.0027836892 0.0027781858
-0.0049921805 0.0068422905 0.0061706165 -0.0030591586 -0.0067283357 -0.0038246422 -0.0014868588 -0.00057252654
0.0010149007 -0.0019962383 -0.0016728212 0.00013918364 0.00014666592 0.002779475 0.0012673362 -0.0033895397
-9.3111674e-05 -0.0011732369 -0.00095805404 -1.341175e-06 0.0033419018 -0.0017970549 -0.00113789 0.002529651

base_model.model.transformer.h.2.attn.c_attn.lora_A.weight f4 [8, 768]
00000000: 79e6 c4bc 4564 0bbc 1289 e93c a439 61bb
00000010: 4693 a5ba 3c9d aebb 8c21 6c3b cd85 1cbc
00000020: ba6c 263d 6c71 bc3c f27f 28bd f19c 123d
00000030: 435a bc3c 75da c33b fe9a c53b b3cb 013d
00000040: 741d 653c 88ba a2bc 7f00 bc3c ec4f aebc
00000050: 0c72 bdbc 633d c7bb 8202 9dbb 2158 853b
00000060: 23cd bb3b 408d 403c ce5d 9b3c 875c 8bbb
00000070: 8af1 4dbc 9b47 f2bb 85be 7dbc 556c 183d
00000080: cca9 35bd d703 353d e1ee cd3c 4a96 cbbc
00000090: 0685 83bc 446f bdbc b59d bfbc 33d6 203b
000000a0: a64f b33c 567d aa3c 9ae8 403c 34ef 9cbc
000000b0: 4d81 8dbc 6cc4 843b 38c2 333d 819e c7bb
000000c0: 7be9 ae3c d1bd 42bc be55 d2bc c6f6 7bbc
000000d0: 6642 703b f708 26bd 0939 23bd c099 2bbc
000000e0: 7c44 083c 1646 b0bc 469c 04bd 7c78 313d
000000f0: fd59 143d 6d00 16bc d40f dd3b 3d78 85bc
00000100: 526e 52bc 9180 73bc 3459 c4bb 0f35 4e3c
00000110: 70ef 4cbc 7c1d d0bc 33d8 49bc 4415 983c
00000120: 4222 1f3b 9d8c 98bc c2b8 9d3c aff8 9e3c
00000130: 7a91 2bbc 9684 1abd c929 e2bb 03ba 85bb
00000140: 2800 b9bc 6a15 ec3c 1a62 243d 3690 a93b
00000150: a170 cb3c 8d8c b03c 1bca ee3c d93e 3ebc
00000160: efac 07bd c003 0dbd c096 dcbc d4e2 1d3c
00000170: 6974 c33c cf90 10bd 7e41 41bc e4a8 8e3c
00000180: 32de 1f3c f72b 4939 e4a8 90bc 338b 743c
00000190: 42b2 e03b 0383 0ebd 29ed eeb7 33bd b5bb
000001a0: 695b e1bc 3595 083d ae02 7f3c f60e 203c
000001b0: df00 e93c a03f 2b3b 6b03 06bd 2806 96ba
000001c0: 3be9 47bb e924 b5bc a120 493b 6807 2e3c
000001d0: 72a2 33b9 8b5b 24bc 0a59 9b3c 597b 433c
000001e0: aa21 f13c 8492 a53c 2a79 72b9 2e44 963c
000001f0: fd0a a43c 3c20 063d 9564 aabc 3bf5 f3bc
00000200: f356 7c3c a974 153d b2d2 f13c e6f5 003c
00000210: 3c2e 383d 5048 debc daf0 cabc cfe6 cc3b
00000220: e3be aebc 1f1e 5d3c 90f3 a13c 35a9 9d3b
00000230: ba97 9bbc 4e40 5abc 4e18 8dbc d7cf 303d
00000240: 327b 893b ae2c a4bc 7d2c bd3c ebdc 97bc
00000250: 1c95 20bd 45c4 8d3c 0261 3cbd 0d84 12bc
00000260: a71e 31bd 2d4f 4e3c 16f2 4ebc 1110 0abd
00000270: b1dd 903b 4829 bc3c f861 80bc 7dca f9bb
00000280: 93f8 15bd 537b 8abc a749 22bd 5525 9d3c
00000290: 0cdf ff3c 0394 0b3d 3c06 39bd f9a1 903c
000002a0: da97 ebbc 1498 883c 93d5 273c 8903 25bd
000002b0: 6914 f7bc c1ee e4bc e0c1 26bd 73d8 76bc
000002c0: 17a7 92bb 90a3 e3bc 5efc d13c ab08 12bd
000002d0: 3f54 533c 38df bbbc 665b 943c cbb9 0e3d
000002e0: da0a d1bc 9af4 1f3d 315d 3abd 28ad 273d
000002f0: 925d 1ebc 3295 0d3c 381b 64ba 6fa8 7cbc
00000300: 6073 283d fdcb 15bc acb9 03bc 0aed 933b
00000310: 0e5e d63c df74 c93c 5ad8 b2ba d7ef 003d
00000320: 0173 afbb bb1a 14bd e332 f1bc e200 febb
00000330: 7161 153d 8a48 003d c1e8 443c 2613 c83b
00000340: 25c9 bfbc d5bd 353a 8b23 a63c f400 a33c
00000350: b9b6 983c 9b2d 35bd 66b6 143b 7a43 b0bb
00000360: 3c4a 5cbc 1d40 16bc f442 143c 00fc c2bc
00000370: 4fa3 ad3c 2b36 1a3c db90 ebbc 76df a53b
00000380: f9ca 31bc 5bbf 03bb 78e6 b53c 71ec a93c
00000390: fe2b 6abc 12b0 87bb 5695 d33c 2769 d8bb
000003a0: 25bf 72bc 9950 af3c 4ef0 d63b 4032 d4bb
000003b0: fac4 d7bc dcaa 963b 4776 d43c 6dfe 94bc
000003c0: 4d30 343b d241 6a3c ba31 1ebc b331 4f3b
000003d0: 197e 1cbd be3d 003d 3977 b23b 315f 393c
000003e0: a6ff 10bd 4ff3 373c b060 b23b 9871 d8bb
000003f0: b8d6 31bd 52f2 0e3d 337b 173c 541b 03bd
-0.02403568 -0.008507793 0.028507743 -0.0034366632 -0.0012632392 -0.0053288024 0.0036030738 -0.009553385
0.040631033 0.023003303 -0.041137643 0.035794202 0.022992259 0.00597697 0.0060304394 0.031688403
0.013984073 -0.019864336 0.022949455 -0.021278344 -0.02312567 -0.006080316 -0.0047915587 0.0040693437
0.0057312413 0.011752427 0.018965628 -0.0042529735 -0.012569794 -0.00739379 -0.015487318 0.03721269
-0.044351384 0.044193115 0.02513832 -0.024851937 -0.016054641 -0.023124345 -0.02339063 0.0024541735
0.021888565 0.020811718 0.0117742065 -0.01915703 -0.01727357 0.0040517356 0.043886393 -0.006091893
0.021351567 -0.011886076 -0.02567565 -0.01537866 0.003666067 -0.040535893 -0.039849315 -0.010473669
0.008317109 -0.021517795 -0.032375596 0.043327793 0.036218632 -0.009155375 0.0067462716 -0.016292686
-0.012843685 -0.014862196 -0.005992079 0.012585892 -0.012508258 -0.025404684 -0.012319612 0.018564828
0.0024281894 -0.018621737 0.019253138 0.019405691 -0.010471696 -0.0377241 -0.006901954 -0.004081012
-0.022583082 0.028818805 0.04013262 0.005174662 0.02483398 0.021551395 0.029149106 -0.011611664
-0.033123907 -0.034427404 -0.026927352 0.0096366 0.02385922 -0.03529435 -0.0117954 0.017414518
0.009757565 0.00019185232 -0.017658658 0.014925766 0.0068571875 -0.03479291 -2.8482247e-05 -0.005546236
-0.027509408 0.03334542 0.015564604 0.009769192 0.028442798 0.0026130453 -0.032718103 -0.0011445927
-0.0030504006 -0.022112327 0.0030689614 0.010621883 -0.00017131286 -0.010031591 0.018963356 0.011931264
0.029434998 0.020211466 -0.00023124056 0.018343057 0.02002477 0.032745585 -0.020799914 -0.029780021
0.01540159 0.03648821 0.029519413 0.007871127 0.044965968 -0.02713409 -0.02477305 0.0062531005
-0.021331256 0.013495951 0.01976946 0.004811431 -0.018993247 -0.0133209955 -0.017223503 0.04316696
0.004195594 -0.020040836 0.023092503 -0.01853796 -0.0392047 0.017305503 -0.04599095 -0.008942616
-0.043242123 0.012592119 -0.01263096 -0.03370673 0.004420959 0.022968903 -0.015671715 -0.0076230154
-0.036614012 -0.016904509 -0.03962102 0.01918284 0.031234287 0.0340767 -0.04517196 0.01765536
-0.028758932 0.016674079 0.010243791 -0.040286575 -0.0301611 -0.027945878 -0.040712237 -0.015066254
-0.004475485 -0.027787954 0.025633033 -0.035652798 0.012898504 -0.022933587 0.018109988 0.034845155
-0.02551787 0.03905163 -0.04549903 0.04093662 -0.009665864 0.008641528 -0.00087015657 -0.015421017
0.041125655 -0.009142873 -0.008039873 0.0045143412 0.026167896 0.024591861 -0.00136448 0.03147873
-0.0053542857 -0.036158305 -0.02944321 -0.00775157 0.03646988 0.03131918 0.0120183835 0.0061057983
-0.023411343 0.0006932889 0.02028062 0.019897915 0.018641816 -0.044232946 0.0022691726 -0.0053791376
-0.013445433 -0.009170559 0.009049166 -0.023801804 0.021196036 0.009412329 -0.028755596 0.005062039
-0.010851615 -0.002010307 0.022204623 0.020742627 -0.014292715 -0.0041408623 0.025828045 -0.006604332
-0.01481608 0.021400737 0.0065594083 -0.006475717 -0.026339043 0.0045980047 0.025935305 -0.018187726
0.002749461 0.014297919 -0.00965541 0.0031615316 -0.038206194 0.031308882 0.0054463414 0.011314199
-0.035400055 0.011227443 0.005443655 -0.0066053383 -0.043417662 0.034899063 0.009245682 -0.032008484

base_model.model.transformer.h.2.attn.c_attn.lora_B.weight f4 [2304, 8]
00000000: 5a76 1a3a 55ea 373a 8b8b 3539 f88e 213a
00000010: 842d 843a 0945 afb9 fc3b 97ba 3b62 55ba
00000020: 11b9 11ba 54ba baba a38e 25b9 4586 e839
00000030: d7dc bd39 c2aa e53a f6b0 7eb9 4f86 d33a
00000040: c3b9 963a cf57 853a 292e 18bb 987a 0b3b
00000050: b70a 72bb 7989 eaba a480 04bb bd59 99ba
00000060: 77ad 473a dbb7 543a eec0 82ba 416b 7d3a
00000070: e19b 22ba 2181 42ba f6d1 75ba e6c9 b8ba
00000080: 0d8c 64bb f8e2 d5ba 3ed4 2b3a ac4c fcba
00000090: 926e 9c39 e396 233a 19f2 f63a 6b70 473a
000000a0: 0822 9e3a 2121 f339 0d69 deba d48c c53a
000000b0: 8301 fcba cac8 bbba c92f 67ba 2661 09ba
000000c0: b889 37bb 3e70 90ba db86 1eb9 8fd2 41bb
000000d0: 6177 07b9 e27b 283b 1123 b53a baf3 443b
000000e0: 8087 e0ba f8b9 66ba faad a139 170a 6aba
000000f0: 482b c4ba 778b d7b9 f28c 593a 1626 663a
00000100: 99ca 6aba f27e 64ba 0e7c 493b 334f 82ba
00000110: ca58 633b 39ba b33a 29a6 423b f664 b43a
00000120: 9795 983a 5529 14ba e7a0 a839 6afb dd39
00000130: 5e2e 1c3b 5ce7 ca3a ff82 77b8 0e43 d93a
00000140: f325 38bb 4ad4 dcba 3b4d 0039 d89c 11bb
00000150: d03f 953a 2041 023b f0a3 2f3b e16b 3b3b
00000160: 8d71 323a a921 973a 5a4f 4dbb a321 913a
00000170: 6769 7fbb 8f1d cfba 6768 e4ba 310d 8eba
00000180: 9d7a 0abb 6516 06bb fd5e 663b 49b3 23bb
00000190: a9dd 803b fd8a 103b cadf 853b 1923 293b
000001a0: c166 5d3b 595c ca3a 30d7 d5ba 56c8 5c3b
000001b0: 4a46 04bb 47e5 ddba d69e 61bb 9cf1 09bb
000001c0: a44e 30bb d84b 0abb bc63 393b e9aa 6cbb
000001d0: a902 183b bfcb e13a 61f8 513b fe0e fb3a
000001e0: 0654 d739 a960 6c3a dc9a 46bb 2399 983a
000001f0: be1d 6abb 8890 c5ba 0b21 c5ba 9035 84ba
00000200: 28b2 bb3a ebdf 763a 3dfe 6f3a 4e03 2a3a
00000210: f2b5 ea3a 4344 e0b9 dd9c 91b9 394f 14ba
00000220: 04e2 3b3a a6f6 5aba f936 af3a d288 bab9
00000230: c2f0 833a f034 22b9 9c56 7f39 b540 443a
00000240: 2e34 8fbb 49ba 38bb aaf2 433b abe9 75bb
00000250: de94 463b aa0c 453b abef 773b a115 5e3b
00000260: 44ac 1c3a 971a 773a 40ac 2ebb 7fca 123b
00000270: 72c0 46bb 48cc 92ba ff4b 5fbb 60f6 74ba
00000280: e2e4 823a 69f9 30ba 2f30 053a 9efe 283a
00000290: 54e0 2d3a fdbe 013a 9435 a137 99fb 283a
000002a0: bf22 1eba 223f 42b8 d7f4 bcb9 f1ea ddb8
000002b0: 3f4e eeb9 79ce 64b9 4659 dab9 c0e1 92ba
000002c0: 060c 84b9 b4c9 653a 7809 2abb d9fe 413a
000002d0: 399d 49bb e78e b6ba d3fd 47ba ff5c 66ba
000002e0: fe5a 7139 56fc 92b9 2998 de3a 3b9c 6cb8
000002f0: cd9e 2b3b 87f9 4c3a f572 f439 d2b4 7f39
00000300: c9d4 1338 81d2 d1b9 bfee 233b 7939 2aba
00000310: 825f 523b f148 6a3a 15e0 9a3a b838 bd39
00000320: fce9 6eb9 2ba7 723a a523 08bb e883 fc3a
00000330: 3f8c 3dbb f5d5 a9ba 36da 85ba fa9d 4dba
00000340: 2352 943a efbb 6e3a 23a0 2a3a 1c9d 0e38
00000350: 7612 053b 5195 a9b8 a8e1 2138 5665 09ba
00000360: 1331 4939 cfbf 803a 8cba 1439 5fda 143a
00000370: 5068 4c38 a22d 17ba d1f4 6d38 75d1 27ba
00000380: 1f7b 18b9 932e 5b3a 3c28 10bb fa03 bd3a
00000390: d5f9 14bb 926e 6cba 55c3 e9ba 7d83 8eba
000003a0: 25f9 d43a 83f0 d63a 4807 f6ba f3b3 233b
000003b0: f3e5 a4ba 95de b0ba da41 14bb aff0 f5ba
000003c0: f262 8db8 73ca 5d39 52d9 03bb 8823 1939
000003d0: f35f 2fbb 89e8 25ba 04d9 0bba e2ae a3b8
000003e0: 5b0a 5f3a 4803 fd39 5b95 afba d310 143a
000003f0: 07a8 0fbb f327 86ba 841e 30ba 5ea6 20ba
0.00058922695 0.0007015814 0.00017313489 0.00061629666 0.0010084365 -0.00033430036 -0.0011538262 -0.00081399427
-0.0005558888 -0.0014246204 -0.00015788763 0.00044350527 0.00036213428 0.0017522203 -0.0002428925 0.001613805
0.0011499453 0.0010173264 -0.0023220873 0.0021282788 -0.0036932656 -0.0017893753 -0.0020218277 -0.0011699718
0.0007617096 0.0008114555 -0.000997571 0.0009667166 -0.00062030373 -0.00074197544 -0.0009377295 -0.0014098256
-0.0034873516 -0.0016318252 0.0006554759 -0.0019248924 0.0002983702 0.00062404404 0.0018840461 0.0007607999
0.0012064585 0.00046373255 -0.0016968563 0.0015071877 -0.0019226525 -0.0014326808 -0.0008819071 -0.00052406115
-0.002800567 -0.0011019779 -0.00015118292 -0.0029574966 -0.00012919075 0.0025708606 0.0013819655 0.00300525
-0.0017130226 -0.0008801515 0.00030837936 -0.0008927895 -0.0014966512 -0.00041111905 0.00082988956 0.0008779479
-0.0008956581 -0.0008716426 0.0030744108 -0.0009941816 0.0034690374 0.0013712115 0.002970109 0.0013762999
0.0011641261 -0.0005651911 0.0003216334 0.00042339723 0.0023831348 0.0015480327 -5.901139e-05 0.001657577
-0.0028098791 -0.0016847935 0.00012235802 -0.002221873 0.0011386815 0.0019875243 0.0026800595 0.0028598236
0.00068070815 0.0011530417 -0.0031327815 0.0011072647 -0.0038972737 -0.0015801656 -0.0017426134 -0.0010837672
-0.0021130212 -0.0020460126 0.0035151832 -0.0024978688 0.003932674 0.00220555 0.0040855156 0.0025808273
0.003378317 0.0015438899 -0.0016314741 0.0033688745 -0.0020183497 -0.0016929292 -0.003442695 -0.0021048551
-0.0026902342 -0.0021102335 0.0028288206 -0.0036112613 0.0023194945 0.0017226859 0.0032038915 0.0019154248
0.00041070598 0.0009017089 -0.0030304706 0.0011642318 -0.0035723294 -0.0015072981 -0.0015039755 -0.0010086764
0.0014320062 0.00094175217 0.0009155011 0.0006485478 0.0017907007 -0.00042775468 -0.00027773427 -0.0005657557
0.0007167163 -0.00083527935 0.0013367824 -0.00035578624 0.0010066258 -0.00015469245 0.0002435096 0.0007486449
-0.004370234 -0.0028187206 0.0029899278 -0.003752331 0.0030301134 0.0030067363 0.0037832062 0.0033887404
0.00059765973 0.00094262644 -0.0026652962 0.002239853 -0.0030327109 -0.0011199797 -0.0034072397 -0.0009344574
0.0009986425 -0.0006751032 0.0005080727 0.00064466323 0.0006632854 0.0004949419 1.9217645e-05 0.00064461824
-0.0006032399 -4.6312e-05 -0.00036040574 -0.000105818624 -0.00045453195 -0.00021820691 -0.00041646714 -0.0011206195
-0.0002518596 0.0008765713 -0.0025945585 0.0007400341 -0.0030763878 -0.0013928086 -0.00076290703 -0.0008787661
0.00023017448 -0.00028035295 0.0016982603 -5.6412286e-05 0.0026187182 0.0007819165 0.00046624956 0.00024386056
3.5245703e-05 -0.00040020424 0.002501413 -0.00064935494 0.0032100384 0.0008937261 0.0011816049 0.00036091148
-0.00022784615 0.00092564774 -0.00207732 0.0019265385 -0.0028922705 -0.0012957441 -0.0010212127 -0.000784367
0.0011315983 0.0009106984 0.00065088476 3.4001758e-05 0.0020305193 -8.08636e-05 3.859555e-05 -0.00052412355
0.00019187135 0.0009822788 0.00014183874 0.0005678292 4.873454e-05 -0.00057669927 5.6733206e-05 -0.0006401756
-0.00014541716 0.0008361127 -0.0021996638 0.0014420741 -0.002273192 -0.0009019162 -0.0017834703 -0.0010872927
0.0016248567 0.0016398582 -0.001877048 0.0024979084 -0.0012580737 -0.0013494069 -0.0022622258 -0.0018763746
-6.741834e-05 0.0002115162 -0.0020118547 0.00014604453 -0.002676007 -0.0006328901 -0.0005334767 -7.80502e-05
0.0008508318 0.00048258365 -0.0013395952 0.0005648259 -0.002192022 -0.0010235294 -0.00067184144 -0.0006128306

base_model.model.transformer.h.3.attn.c_attn.lora_A.weight f4 [8, 768]
00000000: 79b9 dabc 8f99 783c 160c 0c3c 21cf d8bc
00000010: 1d75 073d d0cd aebc a971 66bb fc31 90ba
00000020: 3486 093d 9ef2 b7bc e139 5ebb b602 f2bc
00000030: 3a58 0ebd ef20 8cba 0dad e73c 048c 243d
00000040: e95d c1bc 4621 53bc 4cb6 11bd 4e9f df3c
00000050: a0e2 bdbc 0a3d 5c3b d29b 88bb f80b 383c
00000060: 8131 26bd e415 933a 5c27 89bc ccae dfbc
00000070: 16f3 26bd ae2a 0c3c 470f ca3c 625e d43a
00000080: c1db 083d 6c6a 103d 1c8f aa3c 1d95 db3b
00000090: 6476 273c 3b63 3c3c 20ed 78ba 586e a93c
000000a0: f0a3 5a3c 6937 63bc a6d5 3b3c a4c4 e83c
000000b0: c743 5cbb 58f1 57bc 9c01 acb9 1de3 9a3b
000000c0: 40a7 cbbc c54d aebb 39c5 993c 16b0 b93c
000000d0: 884f 13bc 7cd9 e3bc ed02 8cbc e572 41bb
000000e0: 9e60 cc3c c341 bc3c c8e1 e2bc a8c5 7dbc
000000f0: a618 08bb 7204 7ebc e23f b7bc 5005 8e3a
00000100: c608 2a3c 59c5 373c f090 75bc 2fb4 2abd
00000110: 51b6 b23c b405 cc3b 7a16 da3c 0392 adbc
00000120: 5313 09bd de1b d53c 5639 3f3c 0017 6b3c
00000130: bb10 90bc 7a5c 723c a4d9 ae3c 35ac 02bc
00000140: 14f6 df3b 107c 103d 61e5 cfbc 2107 cfbc
00000150: 5c1c 313c 8e97 f0bb 4a14 393d a5c9 24bb
00000160: cb60 a2bc 6ef3 b43c 518e 06bd 683c b43c
00000170: bae2 2c3c e94a 583c de93 ec3c e2d2 213d
00000180: 6b0d 253b c22b ca3c bdf2 803c 0999 b73c
00000190: 47fe 2abc ccf2 2a3c 5b9d 293d e913 35bc
000001a0: 89ce 88bc 28ae 70bb 937b 2ebd ccee 27bd
000001b0: de32 283d 5b2a ca3c 1190 edbc 2c9b c13c
000001c0: d83e b53c 9786 a53a 1755 2a3b 71d2 29bd
000001d0: fab7 0239 ec9f 0d3b 42a8 b4bc df33 3e3b
000001e0: 6399 e3bc 2c3c 0fb8 1afd 19bd 6f35 f03a
000001f0: 3313 6a3c 3310 45bc ace8 d0ba 76e0 d1bc
00000200: e532 90ba 027b 97bc 9f06 363d b69d abbc
00000210: 6c89 1a3c dc64 253d c7f1 eebb 20ff 0f3c
00000220: 32a0 2b3c da45 313c 914f 453b c10d d3bc
00000230: 850a 173d 5424 e0bc 5c36 c73c ca5f b8bb
00000240: d312 79bb 19b8 86bc f76d b1bc 433f 0dbc
00000250: 803c f53b ea29 603c a5b2 e5bc 3fb6 adbc
00000260: 2e95 a93a 7269 c9bc 3703 903c 6dbf f7bb
00000270: c802 34bd 8fb4 d8bc d5a7 e83c 1830 58bc
00000280: 56e6 9ebc 6f27 db3c 2bea 66bc 4c89 603c
00000290: 06a9 083c e0a4 06bc 0056 88bc ca4d 20bb
000002a0: e6eb 92bc 38a7 d8bb 4e10 793c f4be a639
000002b0: f8dd 583c 238e a23c 1ebc 30bd b2d6 00bd
000002c0: d3b5 fabc d362 ecbc c414 b2bc 6830 a03c
000002d0: 0ec3 723c fdb7 ea3b d804 d0bc f687 6ebc
000002e0: c300 b6bb bf01 99bc fae2 d23b 3b4e 413c
000002f0: 418d 0ebd a43c 003d 373d 0b3d c2cb 60bc
00000300: ab58 043c c07e a23b c390 01bd cd15 c2bb
00000310: d6dc ad3c 269f 9ebc 70e9 eb39 71ef 8ebc
00000320: cade b73c f292 b83a 4837 8c3b bfbc 323d
00000330: 67ec b1bc c3ac 85bc bdf8 afbc fe07 f9bc
00000340: 6de8 e43b 5a72 eb3c cff3 a93c a35f 9d3c
00000350: bc8a b3bc 4edf b5bc 0c32 8a3c ea57 263c
00000360: ab73 14bc f9fd 35bc 0681 2a3c b0c4 8a3c
00000370: b4c4 febc 48dd 243d 512a bebc 6a1e 073d
00000380: bdec f2bc 7c58 e3ba f36d 42bc ae9d 8e3c
00000390: 7da8 143d bbc6 febb 78a9 b13c 6384 c4bc
000003a0: 2d03 a73c 497f 643c 4775 c8bc eec4 573b
000003b0: d36a 06bd eb4f 7d3c 06e3 b3bc 5671 c5bb
000003c0: 87ff d0bc 42b4 c8bc e8b7 63bb 72e1 0a3d
000003d0: 01d9 da3b 8515 20bd 9f53 9f3c 94e9 7abc
000003e0: 02ae c13a b0cc c1bb d4c4 183d 5b85 b1bb
000003f0: e20e 3bbc 8eae 9b3c 7402 263d 7be7 1ebd
-0.026699768 0.01517333 0.008547803 -0.026465954 0.033070672 -0.021338373 -0.0035162962 -0.0011001225
0.03357525 -0.022454556 -0.003390901 -0.029542308 -0.03475211 -0.0010690967 0.02828076 0.04017259
-0.02360435 -0.012886351 -0.035574242 0.027297642 -0.023179352 0.0033605718 -0.004168966 0.011233322
-0.040574554 0.0011221734 -0.0167424 -0.02730503 -0.04075917 0.0085550975 0.024665488 0.0016202445
0.0334127 0.03525774 0.020820193 0.0067011253 0.010221098 0.011498268 -0.00094957836 0.020682499
0.01334475 -0.013868191 0.011464512 0.028414078 -0.0033609734 -0.013180099 -0.00032807596 0.004726781
-0.024860024 -0.0053193294 0.0187708 0.022666972 -0.00899113 -0.027813666 -0.017091239 -0.0029517945
0.024948414 0.022980576 -0.027695552 -0.015489019 -0.0020766645 -0.0155039895 -0.022369329 0.0010835323
0.010378068 0.011216485 -0.014988169 -0.041675743 0.02181545 0.006226266 0.026622046 -0.021187788
-0.033465695 0.026014265 0.011671385 0.014348745 -0.017586103 0.014792556 0.021344014 -0.007975628
0.0068347547 0.035274565 -0.025377931 -0.025271954 0.010809984 -0.0073422855 0.045185365 -0.0025144604
-0.019821545 0.022088733 -0.032850567 0.02200146 0.010552103 0.013201454 0.028879102 0.039507754
0.0025185 0.024679068 0.015740747 0.02241184 -0.010436601 0.010433864 0.04140983 -0.01105211
-0.016700046 -0.00367249 -0.04259832 -0.04099922 0.041064136 0.0246784 -0.02899936 0.023633562
0.022124693 0.0012628612 0.002599066 -0.04146046 0.00012466303 0.0021610213 -0.022052888 0.0029022617
-0.027783101 -3.4149896e-05 -0.037594892 0.0018326471 0.014286804 -0.012027788 -0.0015938482 -0.025619727
-0.0011001496 -0.018491272 0.044439908 -0.020949226 0.009432178 0.04037939 -0.0072920057 0.008788854
0.010475205 0.010819877 0.003010724 -0.025763394 0.036875267 -0.027361073 0.024317913 -0.0056266533
-0.0038005605 -0.016445206 -0.02165888 -0.00862104 0.007484019 0.013681868 -0.028039286 -0.021205066
0.0012938136 -0.024586413 0.017579658 -0.0075606615 -0.043947965 -0.026453285 0.028400341 -0.01319506
-0.019396942 0.026752202 -0.014093916 0.013704609 0.00834108 -0.00821802 -0.01664257 -0.0024460428
-0.01793475 -0.006611731 0.015201641 0.00031804258 0.013236515 0.019843167 -0.043148153 -0.03145475
-0.030604279 -0.028855717 -0.021738417 0.019554332 0.0148170125 0.0071630464 -0.025392935 -0.014558783
-0.00555429 -0.01867759 0.006435749 0.011798437 -0.03480268 0.03130783 0.033993926 -0.013720455
0.008077781 0.0049589574 -0.031632196 -0.005923009 0.021223467 -0.019362997 0.00044996617 -0.017448159
0.022445101 0.0014081879 0.004279051 0.043637034 -0.02171917 -0.01631773 -0.021480912 -0.030399319
0.006985715 0.02874105 0.02074614 0.019210642 -0.02191674 -0.022201207 0.016869567 0.010152796
-0.0090607805 -0.011107915 0.010406738 0.016939491 -0.031099655 0.040250093 -0.023213537 0.03298799
-0.029653901 -0.0017345096 -0.011867034 0.017409172 0.036293495 -0.0077751554 0.021687254 -0.023988908
0.020387257 0.013946363 -0.024469985 0.0032923776 -0.03281672 0.015460948 -0.02195884 -0.0060254736
-0.02551247 -0.024500016 -0.0034747068 0.033906408 0.006678701 -0.039083023 0.019449053 -0.015314478
0.001477659 -0.005914293 0.037297085 -0.0054175085 -0.011417123 0.019004133 0.040529683 -0.038794976
